<?xml version="1.0"?>
<net name="main_graph" version="11">
	<layers>
		<layer id="0" name="images" type="Parameter" version="opset1">
			<data shape="1,3,640,640" element_type="f32" />
			<rt_info>
				<attribute name="old_api_map_element_type" version="0" value="f16" />
			</rt_info>
			<output>
				<port id="0" precision="FP32" names="images">
					<dim>1</dim>
					<dim>3</dim>
					<dim>640</dim>
					<dim>640</dim>
				</port>
			</output>
		</layer>
		<layer id="1" name="/model.29/Constant_10_compressed" type="Const" version="opset1">
			<data element_type="f16" shape="1, 2, 8400" offset="0" size="33600" />
			<output>
				<port id="0" precision="FP16">
					<dim>1</dim>
					<dim>2</dim>
					<dim>8400</dim>
				</port>
			</output>
		</layer>
		<layer id="2" name="/model.29/Constant_10" type="Convert" version="opset1">
			<data destination_type="f32" />
			<rt_info>
				<attribute name="decompression" version="0" />
			</rt_info>
			<input>
				<port id="0" precision="FP16">
					<dim>1</dim>
					<dim>2</dim>
					<dim>8400</dim>
				</port>
			</input>
			<output>
				<port id="1" precision="FP32" names="/model.29/Constant_10_output_0">
					<dim>1</dim>
					<dim>2</dim>
					<dim>8400</dim>
				</port>
			</output>
		</layer>
		<layer id="3" name="model.0.conv.weight_compressed" type="Const" version="opset1">
			<data element_type="f16" shape="32, 3, 3, 3" offset="33600" size="1728" />
			<output>
				<port id="0" precision="FP16">
					<dim>32</dim>
					<dim>3</dim>
					<dim>3</dim>
					<dim>3</dim>
				</port>
			</output>
		</layer>
		<layer id="4" name="model.0.conv.weight" type="Convert" version="opset1">
			<data destination_type="f32" />
			<rt_info>
				<attribute name="decompression" version="0" />
			</rt_info>
			<input>
				<port id="0" precision="FP16">
					<dim>32</dim>
					<dim>3</dim>
					<dim>3</dim>
					<dim>3</dim>
				</port>
			</input>
			<output>
				<port id="1" precision="FP32" names="model.0.conv.weight">
					<dim>32</dim>
					<dim>3</dim>
					<dim>3</dim>
					<dim>3</dim>
				</port>
			</output>
		</layer>
		<layer id="5" name="/model.0/conv/Conv/WithoutBiases" type="Convolution" version="opset1">
			<data strides="2, 2" dilations="1, 1" pads_begin="1, 1" pads_end="1, 1" auto_pad="explicit" />
			<input>
				<port id="0" precision="FP32">
					<dim>1</dim>
					<dim>3</dim>
					<dim>640</dim>
					<dim>640</dim>
				</port>
				<port id="1" precision="FP32">
					<dim>32</dim>
					<dim>3</dim>
					<dim>3</dim>
					<dim>3</dim>
				</port>
			</input>
			<output>
				<port id="2" precision="FP32">
					<dim>1</dim>
					<dim>32</dim>
					<dim>320</dim>
					<dim>320</dim>
				</port>
			</output>
		</layer>
		<layer id="6" name="Reshape_520_compressed" type="Const" version="opset1">
			<data element_type="f16" shape="1, 32, 1, 1" offset="35328" size="64" />
			<output>
				<port id="0" precision="FP16">
					<dim>1</dim>
					<dim>32</dim>
					<dim>1</dim>
					<dim>1</dim>
				</port>
			</output>
		</layer>
		<layer id="7" name="Reshape_520" type="Convert" version="opset1">
			<data destination_type="f32" />
			<rt_info>
				<attribute name="decompression" version="0" />
			</rt_info>
			<input>
				<port id="0" precision="FP16">
					<dim>1</dim>
					<dim>32</dim>
					<dim>1</dim>
					<dim>1</dim>
				</port>
			</input>
			<output>
				<port id="1" precision="FP32">
					<dim>1</dim>
					<dim>32</dim>
					<dim>1</dim>
					<dim>1</dim>
				</port>
			</output>
		</layer>
		<layer id="8" name="/model.0/conv/Conv" type="Add" version="opset1">
			<data auto_broadcast="numpy" />
			<input>
				<port id="0" precision="FP32">
					<dim>1</dim>
					<dim>32</dim>
					<dim>320</dim>
					<dim>320</dim>
				</port>
				<port id="1" precision="FP32">
					<dim>1</dim>
					<dim>32</dim>
					<dim>1</dim>
					<dim>1</dim>
				</port>
			</input>
			<output>
				<port id="2" precision="FP32" names="/model.0/conv/Conv_output_0">
					<dim>1</dim>
					<dim>32</dim>
					<dim>320</dim>
					<dim>320</dim>
				</port>
			</output>
		</layer>
		<layer id="9" name="/model.0/act/Mul" type="Swish" version="opset4">
			<input>
				<port id="0" precision="FP32">
					<dim>1</dim>
					<dim>32</dim>
					<dim>320</dim>
					<dim>320</dim>
				</port>
			</input>
			<output>
				<port id="1" precision="FP32" names="/model.0/act/Mul_output_0">
					<dim>1</dim>
					<dim>32</dim>
					<dim>320</dim>
					<dim>320</dim>
				</port>
			</output>
		</layer>
		<layer id="10" name="model.1.conv.weight_compressed" type="Const" version="opset1">
			<data element_type="f16" shape="64, 32, 3, 3" offset="35392" size="36864" />
			<output>
				<port id="0" precision="FP16">
					<dim>64</dim>
					<dim>32</dim>
					<dim>3</dim>
					<dim>3</dim>
				</port>
			</output>
		</layer>
		<layer id="11" name="model.1.conv.weight" type="Convert" version="opset1">
			<data destination_type="f32" />
			<rt_info>
				<attribute name="decompression" version="0" />
			</rt_info>
			<input>
				<port id="0" precision="FP16">
					<dim>64</dim>
					<dim>32</dim>
					<dim>3</dim>
					<dim>3</dim>
				</port>
			</input>
			<output>
				<port id="1" precision="FP32" names="model.1.conv.weight">
					<dim>64</dim>
					<dim>32</dim>
					<dim>3</dim>
					<dim>3</dim>
				</port>
			</output>
		</layer>
		<layer id="12" name="/model.1/conv/Conv/WithoutBiases" type="Convolution" version="opset1">
			<data strides="2, 2" dilations="1, 1" pads_begin="1, 1" pads_end="1, 1" auto_pad="explicit" />
			<input>
				<port id="0" precision="FP32">
					<dim>1</dim>
					<dim>32</dim>
					<dim>320</dim>
					<dim>320</dim>
				</port>
				<port id="1" precision="FP32">
					<dim>64</dim>
					<dim>32</dim>
					<dim>3</dim>
					<dim>3</dim>
				</port>
			</input>
			<output>
				<port id="2" precision="FP32">
					<dim>1</dim>
					<dim>64</dim>
					<dim>160</dim>
					<dim>160</dim>
				</port>
			</output>
		</layer>
		<layer id="13" name="Reshape_570_compressed" type="Const" version="opset1">
			<data element_type="f16" shape="1, 64, 1, 1" offset="72256" size="128" />
			<output>
				<port id="0" precision="FP16">
					<dim>1</dim>
					<dim>64</dim>
					<dim>1</dim>
					<dim>1</dim>
				</port>
			</output>
		</layer>
		<layer id="14" name="Reshape_570" type="Convert" version="opset1">
			<data destination_type="f32" />
			<rt_info>
				<attribute name="decompression" version="0" />
			</rt_info>
			<input>
				<port id="0" precision="FP16">
					<dim>1</dim>
					<dim>64</dim>
					<dim>1</dim>
					<dim>1</dim>
				</port>
			</input>
			<output>
				<port id="1" precision="FP32">
					<dim>1</dim>
					<dim>64</dim>
					<dim>1</dim>
					<dim>1</dim>
				</port>
			</output>
		</layer>
		<layer id="15" name="/model.1/conv/Conv" type="Add" version="opset1">
			<data auto_broadcast="numpy" />
			<input>
				<port id="0" precision="FP32">
					<dim>1</dim>
					<dim>64</dim>
					<dim>160</dim>
					<dim>160</dim>
				</port>
				<port id="1" precision="FP32">
					<dim>1</dim>
					<dim>64</dim>
					<dim>1</dim>
					<dim>1</dim>
				</port>
			</input>
			<output>
				<port id="2" precision="FP32" names="/model.1/conv/Conv_output_0">
					<dim>1</dim>
					<dim>64</dim>
					<dim>160</dim>
					<dim>160</dim>
				</port>
			</output>
		</layer>
		<layer id="16" name="/model.1/act/Mul" type="Swish" version="opset4">
			<input>
				<port id="0" precision="FP32">
					<dim>1</dim>
					<dim>64</dim>
					<dim>160</dim>
					<dim>160</dim>
				</port>
			</input>
			<output>
				<port id="1" precision="FP32" names="/model.1/act/Mul_output_0">
					<dim>1</dim>
					<dim>64</dim>
					<dim>160</dim>
					<dim>160</dim>
				</port>
			</output>
		</layer>
		<layer id="17" name="model.2.cv1.conv.weight_compressed" type="Const" version="opset1">
			<data element_type="f16" shape="64, 64, 1, 1" offset="72384" size="8192" />
			<output>
				<port id="0" precision="FP16">
					<dim>64</dim>
					<dim>64</dim>
					<dim>1</dim>
					<dim>1</dim>
				</port>
			</output>
		</layer>
		<layer id="18" name="model.2.cv1.conv.weight" type="Convert" version="opset1">
			<data destination_type="f32" />
			<rt_info>
				<attribute name="decompression" version="0" />
			</rt_info>
			<input>
				<port id="0" precision="FP16">
					<dim>64</dim>
					<dim>64</dim>
					<dim>1</dim>
					<dim>1</dim>
				</port>
			</input>
			<output>
				<port id="1" precision="FP32" names="model.2.cv1.conv.weight">
					<dim>64</dim>
					<dim>64</dim>
					<dim>1</dim>
					<dim>1</dim>
				</port>
			</output>
		</layer>
		<layer id="19" name="/model.2/cv1/conv/Conv/WithoutBiases" type="Convolution" version="opset1">
			<data strides="1, 1" dilations="1, 1" pads_begin="0, 0" pads_end="0, 0" auto_pad="explicit" />
			<input>
				<port id="0" precision="FP32">
					<dim>1</dim>
					<dim>64</dim>
					<dim>160</dim>
					<dim>160</dim>
				</port>
				<port id="1" precision="FP32">
					<dim>64</dim>
					<dim>64</dim>
					<dim>1</dim>
					<dim>1</dim>
				</port>
			</input>
			<output>
				<port id="2" precision="FP32">
					<dim>1</dim>
					<dim>64</dim>
					<dim>160</dim>
					<dim>160</dim>
				</port>
			</output>
		</layer>
		<layer id="20" name="Reshape_620_compressed" type="Const" version="opset1">
			<data element_type="f16" shape="1, 64, 1, 1" offset="80576" size="128" />
			<output>
				<port id="0" precision="FP16">
					<dim>1</dim>
					<dim>64</dim>
					<dim>1</dim>
					<dim>1</dim>
				</port>
			</output>
		</layer>
		<layer id="21" name="Reshape_620" type="Convert" version="opset1">
			<data destination_type="f32" />
			<rt_info>
				<attribute name="decompression" version="0" />
			</rt_info>
			<input>
				<port id="0" precision="FP16">
					<dim>1</dim>
					<dim>64</dim>
					<dim>1</dim>
					<dim>1</dim>
				</port>
			</input>
			<output>
				<port id="1" precision="FP32">
					<dim>1</dim>
					<dim>64</dim>
					<dim>1</dim>
					<dim>1</dim>
				</port>
			</output>
		</layer>
		<layer id="22" name="/model.2/cv1/conv/Conv" type="Add" version="opset1">
			<data auto_broadcast="numpy" />
			<input>
				<port id="0" precision="FP32">
					<dim>1</dim>
					<dim>64</dim>
					<dim>160</dim>
					<dim>160</dim>
				</port>
				<port id="1" precision="FP32">
					<dim>1</dim>
					<dim>64</dim>
					<dim>1</dim>
					<dim>1</dim>
				</port>
			</input>
			<output>
				<port id="2" precision="FP32" names="/model.2/cv1/conv/Conv_output_0">
					<dim>1</dim>
					<dim>64</dim>
					<dim>160</dim>
					<dim>160</dim>
				</port>
			</output>
		</layer>
		<layer id="23" name="/model.2/cv1/act/Mul" type="Swish" version="opset4">
			<input>
				<port id="0" precision="FP32">
					<dim>1</dim>
					<dim>64</dim>
					<dim>160</dim>
					<dim>160</dim>
				</port>
			</input>
			<output>
				<port id="1" precision="FP32" names="/model.2/cv1/act/Mul_output_0">
					<dim>1</dim>
					<dim>64</dim>
					<dim>160</dim>
					<dim>160</dim>
				</port>
			</output>
		</layer>
		<layer id="24" name="Constant_650" type="Const" version="opset1">
			<data element_type="i64" shape="" offset="80704" size="8" />
			<output>
				<port id="0" precision="I64" />
			</output>
		</layer>
		<layer id="25" name="Constant_651" type="Const" version="opset1">
			<data element_type="i64" shape="2" offset="80712" size="16" />
			<output>
				<port id="0" precision="I64">
					<dim>2</dim>
				</port>
			</output>
		</layer>
		<layer id="26" name="/model.2/Split" type="VariadicSplit" version="opset1">
			<input>
				<port id="0" precision="FP32">
					<dim>1</dim>
					<dim>64</dim>
					<dim>160</dim>
					<dim>160</dim>
				</port>
				<port id="1" precision="I64" />
				<port id="2" precision="I64">
					<dim>2</dim>
				</port>
			</input>
			<output>
				<port id="3" precision="FP32" names="/model.2/Split_output_0">
					<dim>1</dim>
					<dim>32</dim>
					<dim>160</dim>
					<dim>160</dim>
				</port>
				<port id="4" precision="FP32" names="/model.2/Split_output_1">
					<dim>1</dim>
					<dim>32</dim>
					<dim>160</dim>
					<dim>160</dim>
				</port>
			</output>
		</layer>
		<layer id="27" name="model.2.cv2.conv.weight_compressed" type="Const" version="opset1">
			<data element_type="f16" shape="32, 32, 3, 3" offset="80728" size="18432" />
			<output>
				<port id="0" precision="FP16">
					<dim>32</dim>
					<dim>32</dim>
					<dim>3</dim>
					<dim>3</dim>
				</port>
			</output>
		</layer>
		<layer id="28" name="model.2.cv2.conv.weight" type="Convert" version="opset1">
			<data destination_type="f32" />
			<rt_info>
				<attribute name="decompression" version="0" />
			</rt_info>
			<input>
				<port id="0" precision="FP16">
					<dim>32</dim>
					<dim>32</dim>
					<dim>3</dim>
					<dim>3</dim>
				</port>
			</input>
			<output>
				<port id="1" precision="FP32" names="model.2.cv2.conv.weight">
					<dim>32</dim>
					<dim>32</dim>
					<dim>3</dim>
					<dim>3</dim>
				</port>
			</output>
		</layer>
		<layer id="29" name="/model.2/cv2/conv/Conv/WithoutBiases" type="Convolution" version="opset1">
			<data strides="1, 1" dilations="1, 1" pads_begin="1, 1" pads_end="1, 1" auto_pad="explicit" />
			<input>
				<port id="0" precision="FP32">
					<dim>1</dim>
					<dim>32</dim>
					<dim>160</dim>
					<dim>160</dim>
				</port>
				<port id="1" precision="FP32">
					<dim>32</dim>
					<dim>32</dim>
					<dim>3</dim>
					<dim>3</dim>
				</port>
			</input>
			<output>
				<port id="2" precision="FP32">
					<dim>1</dim>
					<dim>32</dim>
					<dim>160</dim>
					<dim>160</dim>
				</port>
			</output>
		</layer>
		<layer id="30" name="Reshape_673_compressed" type="Const" version="opset1">
			<data element_type="f16" shape="1, 32, 1, 1" offset="99160" size="64" />
			<output>
				<port id="0" precision="FP16">
					<dim>1</dim>
					<dim>32</dim>
					<dim>1</dim>
					<dim>1</dim>
				</port>
			</output>
		</layer>
		<layer id="31" name="Reshape_673" type="Convert" version="opset1">
			<data destination_type="f32" />
			<rt_info>
				<attribute name="decompression" version="0" />
			</rt_info>
			<input>
				<port id="0" precision="FP16">
					<dim>1</dim>
					<dim>32</dim>
					<dim>1</dim>
					<dim>1</dim>
				</port>
			</input>
			<output>
				<port id="1" precision="FP32">
					<dim>1</dim>
					<dim>32</dim>
					<dim>1</dim>
					<dim>1</dim>
				</port>
			</output>
		</layer>
		<layer id="32" name="/model.2/cv2/conv/Conv" type="Add" version="opset1">
			<data auto_broadcast="numpy" />
			<input>
				<port id="0" precision="FP32">
					<dim>1</dim>
					<dim>32</dim>
					<dim>160</dim>
					<dim>160</dim>
				</port>
				<port id="1" precision="FP32">
					<dim>1</dim>
					<dim>32</dim>
					<dim>1</dim>
					<dim>1</dim>
				</port>
			</input>
			<output>
				<port id="2" precision="FP32" names="/model.2/cv2/conv/Conv_output_0">
					<dim>1</dim>
					<dim>32</dim>
					<dim>160</dim>
					<dim>160</dim>
				</port>
			</output>
		</layer>
		<layer id="33" name="/model.2/cv2/act/Mul" type="Swish" version="opset4">
			<input>
				<port id="0" precision="FP32">
					<dim>1</dim>
					<dim>32</dim>
					<dim>160</dim>
					<dim>160</dim>
				</port>
			</input>
			<output>
				<port id="1" precision="FP32" names="/model.2/cv2/act/Mul_output_0">
					<dim>1</dim>
					<dim>32</dim>
					<dim>160</dim>
					<dim>160</dim>
				</port>
			</output>
		</layer>
		<layer id="34" name="model.2.cv3.conv.weight_compressed" type="Const" version="opset1">
			<data element_type="f16" shape="32, 32, 3, 3" offset="99224" size="18432" />
			<output>
				<port id="0" precision="FP16">
					<dim>32</dim>
					<dim>32</dim>
					<dim>3</dim>
					<dim>3</dim>
				</port>
			</output>
		</layer>
		<layer id="35" name="model.2.cv3.conv.weight" type="Convert" version="opset1">
			<data destination_type="f32" />
			<rt_info>
				<attribute name="decompression" version="0" />
			</rt_info>
			<input>
				<port id="0" precision="FP16">
					<dim>32</dim>
					<dim>32</dim>
					<dim>3</dim>
					<dim>3</dim>
				</port>
			</input>
			<output>
				<port id="1" precision="FP32" names="model.2.cv3.conv.weight">
					<dim>32</dim>
					<dim>32</dim>
					<dim>3</dim>
					<dim>3</dim>
				</port>
			</output>
		</layer>
		<layer id="36" name="/model.2/cv3/conv/Conv/WithoutBiases" type="Convolution" version="opset1">
			<data strides="1, 1" dilations="1, 1" pads_begin="1, 1" pads_end="1, 1" auto_pad="explicit" />
			<input>
				<port id="0" precision="FP32">
					<dim>1</dim>
					<dim>32</dim>
					<dim>160</dim>
					<dim>160</dim>
				</port>
				<port id="1" precision="FP32">
					<dim>32</dim>
					<dim>32</dim>
					<dim>3</dim>
					<dim>3</dim>
				</port>
			</input>
			<output>
				<port id="2" precision="FP32">
					<dim>1</dim>
					<dim>32</dim>
					<dim>160</dim>
					<dim>160</dim>
				</port>
			</output>
		</layer>
		<layer id="37" name="Reshape_723_compressed" type="Const" version="opset1">
			<data element_type="f16" shape="1, 32, 1, 1" offset="117656" size="64" />
			<output>
				<port id="0" precision="FP16">
					<dim>1</dim>
					<dim>32</dim>
					<dim>1</dim>
					<dim>1</dim>
				</port>
			</output>
		</layer>
		<layer id="38" name="Reshape_723" type="Convert" version="opset1">
			<data destination_type="f32" />
			<rt_info>
				<attribute name="decompression" version="0" />
			</rt_info>
			<input>
				<port id="0" precision="FP16">
					<dim>1</dim>
					<dim>32</dim>
					<dim>1</dim>
					<dim>1</dim>
				</port>
			</input>
			<output>
				<port id="1" precision="FP32">
					<dim>1</dim>
					<dim>32</dim>
					<dim>1</dim>
					<dim>1</dim>
				</port>
			</output>
		</layer>
		<layer id="39" name="/model.2/cv3/conv/Conv" type="Add" version="opset1">
			<data auto_broadcast="numpy" />
			<input>
				<port id="0" precision="FP32">
					<dim>1</dim>
					<dim>32</dim>
					<dim>160</dim>
					<dim>160</dim>
				</port>
				<port id="1" precision="FP32">
					<dim>1</dim>
					<dim>32</dim>
					<dim>1</dim>
					<dim>1</dim>
				</port>
			</input>
			<output>
				<port id="2" precision="FP32" names="/model.2/cv3/conv/Conv_output_0">
					<dim>1</dim>
					<dim>32</dim>
					<dim>160</dim>
					<dim>160</dim>
				</port>
			</output>
		</layer>
		<layer id="40" name="/model.2/cv3/act/Mul" type="Swish" version="opset4">
			<input>
				<port id="0" precision="FP32">
					<dim>1</dim>
					<dim>32</dim>
					<dim>160</dim>
					<dim>160</dim>
				</port>
			</input>
			<output>
				<port id="1" precision="FP32" names="/model.2/cv3/act/Mul_output_0">
					<dim>1</dim>
					<dim>32</dim>
					<dim>160</dim>
					<dim>160</dim>
				</port>
			</output>
		</layer>
		<layer id="41" name="/model.2/Concat" type="Concat" version="opset1">
			<data axis="1" />
			<input>
				<port id="0" precision="FP32">
					<dim>1</dim>
					<dim>32</dim>
					<dim>160</dim>
					<dim>160</dim>
				</port>
				<port id="1" precision="FP32">
					<dim>1</dim>
					<dim>32</dim>
					<dim>160</dim>
					<dim>160</dim>
				</port>
				<port id="2" precision="FP32">
					<dim>1</dim>
					<dim>32</dim>
					<dim>160</dim>
					<dim>160</dim>
				</port>
				<port id="3" precision="FP32">
					<dim>1</dim>
					<dim>32</dim>
					<dim>160</dim>
					<dim>160</dim>
				</port>
			</input>
			<output>
				<port id="4" precision="FP32" names="/model.2/Concat_output_0">
					<dim>1</dim>
					<dim>128</dim>
					<dim>160</dim>
					<dim>160</dim>
				</port>
			</output>
		</layer>
		<layer id="42" name="model.2.cv4.conv.weight_compressed" type="Const" version="opset1">
			<data element_type="f16" shape="64, 128, 1, 1" offset="117720" size="16384" />
			<output>
				<port id="0" precision="FP16">
					<dim>64</dim>
					<dim>128</dim>
					<dim>1</dim>
					<dim>1</dim>
				</port>
			</output>
		</layer>
		<layer id="43" name="model.2.cv4.conv.weight" type="Convert" version="opset1">
			<data destination_type="f32" />
			<rt_info>
				<attribute name="decompression" version="0" />
			</rt_info>
			<input>
				<port id="0" precision="FP16">
					<dim>64</dim>
					<dim>128</dim>
					<dim>1</dim>
					<dim>1</dim>
				</port>
			</input>
			<output>
				<port id="1" precision="FP32" names="model.2.cv4.conv.weight">
					<dim>64</dim>
					<dim>128</dim>
					<dim>1</dim>
					<dim>1</dim>
				</port>
			</output>
		</layer>
		<layer id="44" name="/model.2/cv4/conv/Conv/WithoutBiases" type="Convolution" version="opset1">
			<data strides="1, 1" dilations="1, 1" pads_begin="0, 0" pads_end="0, 0" auto_pad="explicit" />
			<input>
				<port id="0" precision="FP32">
					<dim>1</dim>
					<dim>128</dim>
					<dim>160</dim>
					<dim>160</dim>
				</port>
				<port id="1" precision="FP32">
					<dim>64</dim>
					<dim>128</dim>
					<dim>1</dim>
					<dim>1</dim>
				</port>
			</input>
			<output>
				<port id="2" precision="FP32">
					<dim>1</dim>
					<dim>64</dim>
					<dim>160</dim>
					<dim>160</dim>
				</port>
			</output>
		</layer>
		<layer id="45" name="Reshape_774_compressed" type="Const" version="opset1">
			<data element_type="f16" shape="1, 64, 1, 1" offset="134104" size="128" />
			<output>
				<port id="0" precision="FP16">
					<dim>1</dim>
					<dim>64</dim>
					<dim>1</dim>
					<dim>1</dim>
				</port>
			</output>
		</layer>
		<layer id="46" name="Reshape_774" type="Convert" version="opset1">
			<data destination_type="f32" />
			<rt_info>
				<attribute name="decompression" version="0" />
			</rt_info>
			<input>
				<port id="0" precision="FP16">
					<dim>1</dim>
					<dim>64</dim>
					<dim>1</dim>
					<dim>1</dim>
				</port>
			</input>
			<output>
				<port id="1" precision="FP32">
					<dim>1</dim>
					<dim>64</dim>
					<dim>1</dim>
					<dim>1</dim>
				</port>
			</output>
		</layer>
		<layer id="47" name="/model.2/cv4/conv/Conv" type="Add" version="opset1">
			<data auto_broadcast="numpy" />
			<input>
				<port id="0" precision="FP32">
					<dim>1</dim>
					<dim>64</dim>
					<dim>160</dim>
					<dim>160</dim>
				</port>
				<port id="1" precision="FP32">
					<dim>1</dim>
					<dim>64</dim>
					<dim>1</dim>
					<dim>1</dim>
				</port>
			</input>
			<output>
				<port id="2" precision="FP32" names="/model.2/cv4/conv/Conv_output_0">
					<dim>1</dim>
					<dim>64</dim>
					<dim>160</dim>
					<dim>160</dim>
				</port>
			</output>
		</layer>
		<layer id="48" name="/model.2/cv4/act/Mul" type="Swish" version="opset4">
			<input>
				<port id="0" precision="FP32">
					<dim>1</dim>
					<dim>64</dim>
					<dim>160</dim>
					<dim>160</dim>
				</port>
			</input>
			<output>
				<port id="1" precision="FP32" names="/model.2/cv4/act/Mul_output_0">
					<dim>1</dim>
					<dim>64</dim>
					<dim>160</dim>
					<dim>160</dim>
				</port>
			</output>
		</layer>
		<layer id="49" name="/model.3/AveragePool" type="AvgPool" version="opset1">
			<data kernel="2, 2" strides="1, 1" pads_begin="0, 0" pads_end="0, 0" exclude-pad="false" auto_pad="explicit" rounding_type="floor" />
			<input>
				<port id="0" precision="FP32">
					<dim>1</dim>
					<dim>64</dim>
					<dim>160</dim>
					<dim>160</dim>
				</port>
			</input>
			<output>
				<port id="1" precision="FP32" names="/model.3/AveragePool_output_0">
					<dim>1</dim>
					<dim>64</dim>
					<dim>159</dim>
					<dim>159</dim>
				</port>
			</output>
		</layer>
		<layer id="50" name="model.3.cv1.conv.weight_compressed" type="Const" version="opset1">
			<data element_type="f16" shape="128, 64, 3, 3" offset="134232" size="147456" />
			<output>
				<port id="0" precision="FP16">
					<dim>128</dim>
					<dim>64</dim>
					<dim>3</dim>
					<dim>3</dim>
				</port>
			</output>
		</layer>
		<layer id="51" name="model.3.cv1.conv.weight" type="Convert" version="opset1">
			<data destination_type="f32" />
			<rt_info>
				<attribute name="decompression" version="0" />
			</rt_info>
			<input>
				<port id="0" precision="FP16">
					<dim>128</dim>
					<dim>64</dim>
					<dim>3</dim>
					<dim>3</dim>
				</port>
			</input>
			<output>
				<port id="1" precision="FP32" names="model.3.cv1.conv.weight">
					<dim>128</dim>
					<dim>64</dim>
					<dim>3</dim>
					<dim>3</dim>
				</port>
			</output>
		</layer>
		<layer id="52" name="/model.3/cv1/conv/Conv/WithoutBiases" type="Convolution" version="opset1">
			<data strides="2, 2" dilations="1, 1" pads_begin="1, 1" pads_end="1, 1" auto_pad="explicit" />
			<input>
				<port id="0" precision="FP32">
					<dim>1</dim>
					<dim>64</dim>
					<dim>159</dim>
					<dim>159</dim>
				</port>
				<port id="1" precision="FP32">
					<dim>128</dim>
					<dim>64</dim>
					<dim>3</dim>
					<dim>3</dim>
				</port>
			</input>
			<output>
				<port id="2" precision="FP32">
					<dim>1</dim>
					<dim>128</dim>
					<dim>80</dim>
					<dim>80</dim>
				</port>
			</output>
		</layer>
		<layer id="53" name="Reshape_825_compressed" type="Const" version="opset1">
			<data element_type="f16" shape="1, 128, 1, 1" offset="281688" size="256" />
			<output>
				<port id="0" precision="FP16">
					<dim>1</dim>
					<dim>128</dim>
					<dim>1</dim>
					<dim>1</dim>
				</port>
			</output>
		</layer>
		<layer id="54" name="Reshape_825" type="Convert" version="opset1">
			<data destination_type="f32" />
			<rt_info>
				<attribute name="decompression" version="0" />
			</rt_info>
			<input>
				<port id="0" precision="FP16">
					<dim>1</dim>
					<dim>128</dim>
					<dim>1</dim>
					<dim>1</dim>
				</port>
			</input>
			<output>
				<port id="1" precision="FP32">
					<dim>1</dim>
					<dim>128</dim>
					<dim>1</dim>
					<dim>1</dim>
				</port>
			</output>
		</layer>
		<layer id="55" name="/model.3/cv1/conv/Conv" type="Add" version="opset1">
			<data auto_broadcast="numpy" />
			<input>
				<port id="0" precision="FP32">
					<dim>1</dim>
					<dim>128</dim>
					<dim>80</dim>
					<dim>80</dim>
				</port>
				<port id="1" precision="FP32">
					<dim>1</dim>
					<dim>128</dim>
					<dim>1</dim>
					<dim>1</dim>
				</port>
			</input>
			<output>
				<port id="2" precision="FP32" names="/model.3/cv1/conv/Conv_output_0">
					<dim>1</dim>
					<dim>128</dim>
					<dim>80</dim>
					<dim>80</dim>
				</port>
			</output>
		</layer>
		<layer id="56" name="/model.3/cv1/act/Mul" type="Swish" version="opset4">
			<input>
				<port id="0" precision="FP32">
					<dim>1</dim>
					<dim>128</dim>
					<dim>80</dim>
					<dim>80</dim>
				</port>
			</input>
			<output>
				<port id="1" precision="FP32" names="/model.3/cv1/act/Mul_output_0">
					<dim>1</dim>
					<dim>128</dim>
					<dim>80</dim>
					<dim>80</dim>
				</port>
			</output>
		</layer>
		<layer id="57" name="model.4.cv1.conv.weight_compressed" type="Const" version="opset1">
			<data element_type="f16" shape="128, 128, 1, 1" offset="281944" size="32768" />
			<output>
				<port id="0" precision="FP16">
					<dim>128</dim>
					<dim>128</dim>
					<dim>1</dim>
					<dim>1</dim>
				</port>
			</output>
		</layer>
		<layer id="58" name="model.4.cv1.conv.weight" type="Convert" version="opset1">
			<data destination_type="f32" />
			<rt_info>
				<attribute name="decompression" version="0" />
			</rt_info>
			<input>
				<port id="0" precision="FP16">
					<dim>128</dim>
					<dim>128</dim>
					<dim>1</dim>
					<dim>1</dim>
				</port>
			</input>
			<output>
				<port id="1" precision="FP32" names="model.4.cv1.conv.weight">
					<dim>128</dim>
					<dim>128</dim>
					<dim>1</dim>
					<dim>1</dim>
				</port>
			</output>
		</layer>
		<layer id="59" name="/model.4/cv1/conv/Conv/WithoutBiases" type="Convolution" version="opset1">
			<data strides="1, 1" dilations="1, 1" pads_begin="0, 0" pads_end="0, 0" auto_pad="explicit" />
			<input>
				<port id="0" precision="FP32">
					<dim>1</dim>
					<dim>128</dim>
					<dim>80</dim>
					<dim>80</dim>
				</port>
				<port id="1" precision="FP32">
					<dim>128</dim>
					<dim>128</dim>
					<dim>1</dim>
					<dim>1</dim>
				</port>
			</input>
			<output>
				<port id="2" precision="FP32">
					<dim>1</dim>
					<dim>128</dim>
					<dim>80</dim>
					<dim>80</dim>
				</port>
			</output>
		</layer>
		<layer id="60" name="Reshape_875_compressed" type="Const" version="opset1">
			<data element_type="f16" shape="1, 128, 1, 1" offset="314712" size="256" />
			<output>
				<port id="0" precision="FP16">
					<dim>1</dim>
					<dim>128</dim>
					<dim>1</dim>
					<dim>1</dim>
				</port>
			</output>
		</layer>
		<layer id="61" name="Reshape_875" type="Convert" version="opset1">
			<data destination_type="f32" />
			<rt_info>
				<attribute name="decompression" version="0" />
			</rt_info>
			<input>
				<port id="0" precision="FP16">
					<dim>1</dim>
					<dim>128</dim>
					<dim>1</dim>
					<dim>1</dim>
				</port>
			</input>
			<output>
				<port id="1" precision="FP32">
					<dim>1</dim>
					<dim>128</dim>
					<dim>1</dim>
					<dim>1</dim>
				</port>
			</output>
		</layer>
		<layer id="62" name="/model.4/cv1/conv/Conv" type="Add" version="opset1">
			<data auto_broadcast="numpy" />
			<input>
				<port id="0" precision="FP32">
					<dim>1</dim>
					<dim>128</dim>
					<dim>80</dim>
					<dim>80</dim>
				</port>
				<port id="1" precision="FP32">
					<dim>1</dim>
					<dim>128</dim>
					<dim>1</dim>
					<dim>1</dim>
				</port>
			</input>
			<output>
				<port id="2" precision="FP32" names="/model.4/cv1/conv/Conv_output_0">
					<dim>1</dim>
					<dim>128</dim>
					<dim>80</dim>
					<dim>80</dim>
				</port>
			</output>
		</layer>
		<layer id="63" name="/model.4/cv1/act/Mul" type="Swish" version="opset4">
			<input>
				<port id="0" precision="FP32">
					<dim>1</dim>
					<dim>128</dim>
					<dim>80</dim>
					<dim>80</dim>
				</port>
			</input>
			<output>
				<port id="1" precision="FP32" names="/model.4/cv1/act/Mul_output_0">
					<dim>1</dim>
					<dim>128</dim>
					<dim>80</dim>
					<dim>80</dim>
				</port>
			</output>
		</layer>
		<layer id="64" name="Constant_905" type="Const" version="opset1">
			<data element_type="i64" shape="" offset="80704" size="8" />
			<output>
				<port id="0" precision="I64" />
			</output>
		</layer>
		<layer id="65" name="Constant_906" type="Const" version="opset1">
			<data element_type="i64" shape="2" offset="314968" size="16" />
			<output>
				<port id="0" precision="I64">
					<dim>2</dim>
				</port>
			</output>
		</layer>
		<layer id="66" name="/model.4/Split" type="VariadicSplit" version="opset1">
			<input>
				<port id="0" precision="FP32">
					<dim>1</dim>
					<dim>128</dim>
					<dim>80</dim>
					<dim>80</dim>
				</port>
				<port id="1" precision="I64" />
				<port id="2" precision="I64">
					<dim>2</dim>
				</port>
			</input>
			<output>
				<port id="3" precision="FP32" names="/model.4/Split_output_0">
					<dim>1</dim>
					<dim>64</dim>
					<dim>80</dim>
					<dim>80</dim>
				</port>
				<port id="4" precision="FP32" names="/model.4/Split_output_1">
					<dim>1</dim>
					<dim>64</dim>
					<dim>80</dim>
					<dim>80</dim>
				</port>
			</output>
		</layer>
		<layer id="67" name="model.4.cv2.0.cv1.conv.weight_compressed" type="Const" version="opset1">
			<data element_type="f16" shape="32, 64, 1, 1" offset="314984" size="4096" />
			<output>
				<port id="0" precision="FP16">
					<dim>32</dim>
					<dim>64</dim>
					<dim>1</dim>
					<dim>1</dim>
				</port>
			</output>
		</layer>
		<layer id="68" name="model.4.cv2.0.cv1.conv.weight" type="Convert" version="opset1">
			<data destination_type="f32" />
			<rt_info>
				<attribute name="decompression" version="0" />
			</rt_info>
			<input>
				<port id="0" precision="FP16">
					<dim>32</dim>
					<dim>64</dim>
					<dim>1</dim>
					<dim>1</dim>
				</port>
			</input>
			<output>
				<port id="1" precision="FP32" names="model.4.cv2.0.cv1.conv.weight">
					<dim>32</dim>
					<dim>64</dim>
					<dim>1</dim>
					<dim>1</dim>
				</port>
			</output>
		</layer>
		<layer id="69" name="/model.4/cv2/cv2.0/cv1/conv/Conv/WithoutBiases" type="Convolution" version="opset1">
			<data strides="1, 1" dilations="1, 1" pads_begin="0, 0" pads_end="0, 0" auto_pad="explicit" />
			<input>
				<port id="0" precision="FP32">
					<dim>1</dim>
					<dim>64</dim>
					<dim>80</dim>
					<dim>80</dim>
				</port>
				<port id="1" precision="FP32">
					<dim>32</dim>
					<dim>64</dim>
					<dim>1</dim>
					<dim>1</dim>
				</port>
			</input>
			<output>
				<port id="2" precision="FP32">
					<dim>1</dim>
					<dim>32</dim>
					<dim>80</dim>
					<dim>80</dim>
				</port>
			</output>
		</layer>
		<layer id="70" name="Reshape_928_compressed" type="Const" version="opset1">
			<data element_type="f16" shape="1, 32, 1, 1" offset="319080" size="64" />
			<output>
				<port id="0" precision="FP16">
					<dim>1</dim>
					<dim>32</dim>
					<dim>1</dim>
					<dim>1</dim>
				</port>
			</output>
		</layer>
		<layer id="71" name="Reshape_928" type="Convert" version="opset1">
			<data destination_type="f32" />
			<rt_info>
				<attribute name="decompression" version="0" />
			</rt_info>
			<input>
				<port id="0" precision="FP16">
					<dim>1</dim>
					<dim>32</dim>
					<dim>1</dim>
					<dim>1</dim>
				</port>
			</input>
			<output>
				<port id="1" precision="FP32">
					<dim>1</dim>
					<dim>32</dim>
					<dim>1</dim>
					<dim>1</dim>
				</port>
			</output>
		</layer>
		<layer id="72" name="/model.4/cv2/cv2.0/cv1/conv/Conv" type="Add" version="opset1">
			<data auto_broadcast="numpy" />
			<input>
				<port id="0" precision="FP32">
					<dim>1</dim>
					<dim>32</dim>
					<dim>80</dim>
					<dim>80</dim>
				</port>
				<port id="1" precision="FP32">
					<dim>1</dim>
					<dim>32</dim>
					<dim>1</dim>
					<dim>1</dim>
				</port>
			</input>
			<output>
				<port id="2" precision="FP32" names="/model.4/cv2/cv2.0/cv1/conv/Conv_output_0">
					<dim>1</dim>
					<dim>32</dim>
					<dim>80</dim>
					<dim>80</dim>
				</port>
			</output>
		</layer>
		<layer id="73" name="/model.4/cv2/cv2.0/cv1/act/Mul" type="Swish" version="opset4">
			<input>
				<port id="0" precision="FP32">
					<dim>1</dim>
					<dim>32</dim>
					<dim>80</dim>
					<dim>80</dim>
				</port>
			</input>
			<output>
				<port id="1" precision="FP32" names="/model.4/cv2/cv2.0/cv1/act/Mul_output_0">
					<dim>1</dim>
					<dim>32</dim>
					<dim>80</dim>
					<dim>80</dim>
				</port>
			</output>
		</layer>
		<layer id="74" name="model.4.cv2.0.m.0.cv1.conv.weight_compressed" type="Const" version="opset1">
			<data element_type="f16" shape="32, 32, 3, 3" offset="319144" size="18432" />
			<output>
				<port id="0" precision="FP16">
					<dim>32</dim>
					<dim>32</dim>
					<dim>3</dim>
					<dim>3</dim>
				</port>
			</output>
		</layer>
		<layer id="75" name="model.4.cv2.0.m.0.cv1.conv.weight" type="Convert" version="opset1">
			<data destination_type="f32" />
			<rt_info>
				<attribute name="decompression" version="0" />
			</rt_info>
			<input>
				<port id="0" precision="FP16">
					<dim>32</dim>
					<dim>32</dim>
					<dim>3</dim>
					<dim>3</dim>
				</port>
			</input>
			<output>
				<port id="1" precision="FP32" names="model.4.cv2.0.m.0.cv1.conv.weight">
					<dim>32</dim>
					<dim>32</dim>
					<dim>3</dim>
					<dim>3</dim>
				</port>
			</output>
		</layer>
		<layer id="76" name="/model.4/cv2/cv2.0/m/m.0/cv1/conv/Conv/WithoutBiases" type="Convolution" version="opset1">
			<data strides="1, 1" dilations="1, 1" pads_begin="1, 1" pads_end="1, 1" auto_pad="explicit" />
			<input>
				<port id="0" precision="FP32">
					<dim>1</dim>
					<dim>32</dim>
					<dim>80</dim>
					<dim>80</dim>
				</port>
				<port id="1" precision="FP32">
					<dim>32</dim>
					<dim>32</dim>
					<dim>3</dim>
					<dim>3</dim>
				</port>
			</input>
			<output>
				<port id="2" precision="FP32">
					<dim>1</dim>
					<dim>32</dim>
					<dim>80</dim>
					<dim>80</dim>
				</port>
			</output>
		</layer>
		<layer id="77" name="Reshape_978_compressed" type="Const" version="opset1">
			<data element_type="f16" shape="1, 32, 1, 1" offset="337576" size="64" />
			<output>
				<port id="0" precision="FP16">
					<dim>1</dim>
					<dim>32</dim>
					<dim>1</dim>
					<dim>1</dim>
				</port>
			</output>
		</layer>
		<layer id="78" name="Reshape_978" type="Convert" version="opset1">
			<data destination_type="f32" />
			<rt_info>
				<attribute name="decompression" version="0" />
			</rt_info>
			<input>
				<port id="0" precision="FP16">
					<dim>1</dim>
					<dim>32</dim>
					<dim>1</dim>
					<dim>1</dim>
				</port>
			</input>
			<output>
				<port id="1" precision="FP32">
					<dim>1</dim>
					<dim>32</dim>
					<dim>1</dim>
					<dim>1</dim>
				</port>
			</output>
		</layer>
		<layer id="79" name="/model.4/cv2/cv2.0/m/m.0/cv1/conv/Conv" type="Add" version="opset1">
			<data auto_broadcast="numpy" />
			<input>
				<port id="0" precision="FP32">
					<dim>1</dim>
					<dim>32</dim>
					<dim>80</dim>
					<dim>80</dim>
				</port>
				<port id="1" precision="FP32">
					<dim>1</dim>
					<dim>32</dim>
					<dim>1</dim>
					<dim>1</dim>
				</port>
			</input>
			<output>
				<port id="2" precision="FP32" names="/model.4/cv2/cv2.0/m/m.0/cv1/conv/Conv_output_0">
					<dim>1</dim>
					<dim>32</dim>
					<dim>80</dim>
					<dim>80</dim>
				</port>
			</output>
		</layer>
		<layer id="80" name="/model.4/cv2/cv2.0/m/m.0/cv1/act/Mul" type="Swish" version="opset4">
			<input>
				<port id="0" precision="FP32">
					<dim>1</dim>
					<dim>32</dim>
					<dim>80</dim>
					<dim>80</dim>
				</port>
			</input>
			<output>
				<port id="1" precision="FP32" names="/model.4/cv2/cv2.0/m/m.0/cv1/act/Mul_output_0">
					<dim>1</dim>
					<dim>32</dim>
					<dim>80</dim>
					<dim>80</dim>
				</port>
			</output>
		</layer>
		<layer id="81" name="model.4.cv2.0.m.0.cv2.conv.weight_compressed" type="Const" version="opset1">
			<data element_type="f16" shape="32, 32, 3, 3" offset="337640" size="18432" />
			<output>
				<port id="0" precision="FP16">
					<dim>32</dim>
					<dim>32</dim>
					<dim>3</dim>
					<dim>3</dim>
				</port>
			</output>
		</layer>
		<layer id="82" name="model.4.cv2.0.m.0.cv2.conv.weight" type="Convert" version="opset1">
			<data destination_type="f32" />
			<rt_info>
				<attribute name="decompression" version="0" />
			</rt_info>
			<input>
				<port id="0" precision="FP16">
					<dim>32</dim>
					<dim>32</dim>
					<dim>3</dim>
					<dim>3</dim>
				</port>
			</input>
			<output>
				<port id="1" precision="FP32" names="model.4.cv2.0.m.0.cv2.conv.weight">
					<dim>32</dim>
					<dim>32</dim>
					<dim>3</dim>
					<dim>3</dim>
				</port>
			</output>
		</layer>
		<layer id="83" name="/model.4/cv2/cv2.0/m/m.0/cv2/conv/Conv/WithoutBiases" type="Convolution" version="opset1">
			<data strides="1, 1" dilations="1, 1" pads_begin="1, 1" pads_end="1, 1" auto_pad="explicit" />
			<input>
				<port id="0" precision="FP32">
					<dim>1</dim>
					<dim>32</dim>
					<dim>80</dim>
					<dim>80</dim>
				</port>
				<port id="1" precision="FP32">
					<dim>32</dim>
					<dim>32</dim>
					<dim>3</dim>
					<dim>3</dim>
				</port>
			</input>
			<output>
				<port id="2" precision="FP32">
					<dim>1</dim>
					<dim>32</dim>
					<dim>80</dim>
					<dim>80</dim>
				</port>
			</output>
		</layer>
		<layer id="84" name="Reshape_1028_compressed" type="Const" version="opset1">
			<data element_type="f16" shape="1, 32, 1, 1" offset="356072" size="64" />
			<output>
				<port id="0" precision="FP16">
					<dim>1</dim>
					<dim>32</dim>
					<dim>1</dim>
					<dim>1</dim>
				</port>
			</output>
		</layer>
		<layer id="85" name="Reshape_1028" type="Convert" version="opset1">
			<data destination_type="f32" />
			<rt_info>
				<attribute name="decompression" version="0" />
			</rt_info>
			<input>
				<port id="0" precision="FP16">
					<dim>1</dim>
					<dim>32</dim>
					<dim>1</dim>
					<dim>1</dim>
				</port>
			</input>
			<output>
				<port id="1" precision="FP32">
					<dim>1</dim>
					<dim>32</dim>
					<dim>1</dim>
					<dim>1</dim>
				</port>
			</output>
		</layer>
		<layer id="86" name="/model.4/cv2/cv2.0/m/m.0/cv2/conv/Conv" type="Add" version="opset1">
			<data auto_broadcast="numpy" />
			<input>
				<port id="0" precision="FP32">
					<dim>1</dim>
					<dim>32</dim>
					<dim>80</dim>
					<dim>80</dim>
				</port>
				<port id="1" precision="FP32">
					<dim>1</dim>
					<dim>32</dim>
					<dim>1</dim>
					<dim>1</dim>
				</port>
			</input>
			<output>
				<port id="2" precision="FP32" names="/model.4/cv2/cv2.0/m/m.0/cv2/conv/Conv_output_0">
					<dim>1</dim>
					<dim>32</dim>
					<dim>80</dim>
					<dim>80</dim>
				</port>
			</output>
		</layer>
		<layer id="87" name="/model.4/cv2/cv2.0/m/m.0/cv2/act/Mul" type="Swish" version="opset4">
			<input>
				<port id="0" precision="FP32">
					<dim>1</dim>
					<dim>32</dim>
					<dim>80</dim>
					<dim>80</dim>
				</port>
			</input>
			<output>
				<port id="1" precision="FP32" names="/model.4/cv2/cv2.0/m/m.0/cv2/act/Mul_output_0">
					<dim>1</dim>
					<dim>32</dim>
					<dim>80</dim>
					<dim>80</dim>
				</port>
			</output>
		</layer>
		<layer id="88" name="/model.4/cv2/cv2.0/m/m.0/Add" type="Add" version="opset1">
			<data auto_broadcast="numpy" />
			<input>
				<port id="0" precision="FP32">
					<dim>1</dim>
					<dim>32</dim>
					<dim>80</dim>
					<dim>80</dim>
				</port>
				<port id="1" precision="FP32">
					<dim>1</dim>
					<dim>32</dim>
					<dim>80</dim>
					<dim>80</dim>
				</port>
			</input>
			<output>
				<port id="2" precision="FP32" names="/model.4/cv2/cv2.0/m/m.0/Add_output_0">
					<dim>1</dim>
					<dim>32</dim>
					<dim>80</dim>
					<dim>80</dim>
				</port>
			</output>
		</layer>
		<layer id="89" name="model.4.cv2.0.m.1.cv1.conv.weight_compressed" type="Const" version="opset1">
			<data element_type="f16" shape="32, 32, 3, 3" offset="356136" size="18432" />
			<output>
				<port id="0" precision="FP16">
					<dim>32</dim>
					<dim>32</dim>
					<dim>3</dim>
					<dim>3</dim>
				</port>
			</output>
		</layer>
		<layer id="90" name="model.4.cv2.0.m.1.cv1.conv.weight" type="Convert" version="opset1">
			<data destination_type="f32" />
			<rt_info>
				<attribute name="decompression" version="0" />
			</rt_info>
			<input>
				<port id="0" precision="FP16">
					<dim>32</dim>
					<dim>32</dim>
					<dim>3</dim>
					<dim>3</dim>
				</port>
			</input>
			<output>
				<port id="1" precision="FP32" names="model.4.cv2.0.m.1.cv1.conv.weight">
					<dim>32</dim>
					<dim>32</dim>
					<dim>3</dim>
					<dim>3</dim>
				</port>
			</output>
		</layer>
		<layer id="91" name="/model.4/cv2/cv2.0/m/m.1/cv1/conv/Conv/WithoutBiases" type="Convolution" version="opset1">
			<data strides="1, 1" dilations="1, 1" pads_begin="1, 1" pads_end="1, 1" auto_pad="explicit" />
			<input>
				<port id="0" precision="FP32">
					<dim>1</dim>
					<dim>32</dim>
					<dim>80</dim>
					<dim>80</dim>
				</port>
				<port id="1" precision="FP32">
					<dim>32</dim>
					<dim>32</dim>
					<dim>3</dim>
					<dim>3</dim>
				</port>
			</input>
			<output>
				<port id="2" precision="FP32">
					<dim>1</dim>
					<dim>32</dim>
					<dim>80</dim>
					<dim>80</dim>
				</port>
			</output>
		</layer>
		<layer id="92" name="Reshape_1079_compressed" type="Const" version="opset1">
			<data element_type="f16" shape="1, 32, 1, 1" offset="374568" size="64" />
			<output>
				<port id="0" precision="FP16">
					<dim>1</dim>
					<dim>32</dim>
					<dim>1</dim>
					<dim>1</dim>
				</port>
			</output>
		</layer>
		<layer id="93" name="Reshape_1079" type="Convert" version="opset1">
			<data destination_type="f32" />
			<rt_info>
				<attribute name="decompression" version="0" />
			</rt_info>
			<input>
				<port id="0" precision="FP16">
					<dim>1</dim>
					<dim>32</dim>
					<dim>1</dim>
					<dim>1</dim>
				</port>
			</input>
			<output>
				<port id="1" precision="FP32">
					<dim>1</dim>
					<dim>32</dim>
					<dim>1</dim>
					<dim>1</dim>
				</port>
			</output>
		</layer>
		<layer id="94" name="/model.4/cv2/cv2.0/m/m.1/cv1/conv/Conv" type="Add" version="opset1">
			<data auto_broadcast="numpy" />
			<input>
				<port id="0" precision="FP32">
					<dim>1</dim>
					<dim>32</dim>
					<dim>80</dim>
					<dim>80</dim>
				</port>
				<port id="1" precision="FP32">
					<dim>1</dim>
					<dim>32</dim>
					<dim>1</dim>
					<dim>1</dim>
				</port>
			</input>
			<output>
				<port id="2" precision="FP32" names="/model.4/cv2/cv2.0/m/m.1/cv1/conv/Conv_output_0">
					<dim>1</dim>
					<dim>32</dim>
					<dim>80</dim>
					<dim>80</dim>
				</port>
			</output>
		</layer>
		<layer id="95" name="/model.4/cv2/cv2.0/m/m.1/cv1/act/Mul" type="Swish" version="opset4">
			<input>
				<port id="0" precision="FP32">
					<dim>1</dim>
					<dim>32</dim>
					<dim>80</dim>
					<dim>80</dim>
				</port>
			</input>
			<output>
				<port id="1" precision="FP32" names="/model.4/cv2/cv2.0/m/m.1/cv1/act/Mul_output_0">
					<dim>1</dim>
					<dim>32</dim>
					<dim>80</dim>
					<dim>80</dim>
				</port>
			</output>
		</layer>
		<layer id="96" name="model.4.cv2.0.m.1.cv2.conv.weight_compressed" type="Const" version="opset1">
			<data element_type="f16" shape="32, 32, 3, 3" offset="374632" size="18432" />
			<output>
				<port id="0" precision="FP16">
					<dim>32</dim>
					<dim>32</dim>
					<dim>3</dim>
					<dim>3</dim>
				</port>
			</output>
		</layer>
		<layer id="97" name="model.4.cv2.0.m.1.cv2.conv.weight" type="Convert" version="opset1">
			<data destination_type="f32" />
			<rt_info>
				<attribute name="decompression" version="0" />
			</rt_info>
			<input>
				<port id="0" precision="FP16">
					<dim>32</dim>
					<dim>32</dim>
					<dim>3</dim>
					<dim>3</dim>
				</port>
			</input>
			<output>
				<port id="1" precision="FP32" names="model.4.cv2.0.m.1.cv2.conv.weight">
					<dim>32</dim>
					<dim>32</dim>
					<dim>3</dim>
					<dim>3</dim>
				</port>
			</output>
		</layer>
		<layer id="98" name="/model.4/cv2/cv2.0/m/m.1/cv2/conv/Conv/WithoutBiases" type="Convolution" version="opset1">
			<data strides="1, 1" dilations="1, 1" pads_begin="1, 1" pads_end="1, 1" auto_pad="explicit" />
			<input>
				<port id="0" precision="FP32">
					<dim>1</dim>
					<dim>32</dim>
					<dim>80</dim>
					<dim>80</dim>
				</port>
				<port id="1" precision="FP32">
					<dim>32</dim>
					<dim>32</dim>
					<dim>3</dim>
					<dim>3</dim>
				</port>
			</input>
			<output>
				<port id="2" precision="FP32">
					<dim>1</dim>
					<dim>32</dim>
					<dim>80</dim>
					<dim>80</dim>
				</port>
			</output>
		</layer>
		<layer id="99" name="Reshape_1129_compressed" type="Const" version="opset1">
			<data element_type="f16" shape="1, 32, 1, 1" offset="393064" size="64" />
			<output>
				<port id="0" precision="FP16">
					<dim>1</dim>
					<dim>32</dim>
					<dim>1</dim>
					<dim>1</dim>
				</port>
			</output>
		</layer>
		<layer id="100" name="Reshape_1129" type="Convert" version="opset1">
			<data destination_type="f32" />
			<rt_info>
				<attribute name="decompression" version="0" />
			</rt_info>
			<input>
				<port id="0" precision="FP16">
					<dim>1</dim>
					<dim>32</dim>
					<dim>1</dim>
					<dim>1</dim>
				</port>
			</input>
			<output>
				<port id="1" precision="FP32">
					<dim>1</dim>
					<dim>32</dim>
					<dim>1</dim>
					<dim>1</dim>
				</port>
			</output>
		</layer>
		<layer id="101" name="/model.4/cv2/cv2.0/m/m.1/cv2/conv/Conv" type="Add" version="opset1">
			<data auto_broadcast="numpy" />
			<input>
				<port id="0" precision="FP32">
					<dim>1</dim>
					<dim>32</dim>
					<dim>80</dim>
					<dim>80</dim>
				</port>
				<port id="1" precision="FP32">
					<dim>1</dim>
					<dim>32</dim>
					<dim>1</dim>
					<dim>1</dim>
				</port>
			</input>
			<output>
				<port id="2" precision="FP32" names="/model.4/cv2/cv2.0/m/m.1/cv2/conv/Conv_output_0">
					<dim>1</dim>
					<dim>32</dim>
					<dim>80</dim>
					<dim>80</dim>
				</port>
			</output>
		</layer>
		<layer id="102" name="/model.4/cv2/cv2.0/m/m.1/cv2/act/Mul" type="Swish" version="opset4">
			<input>
				<port id="0" precision="FP32">
					<dim>1</dim>
					<dim>32</dim>
					<dim>80</dim>
					<dim>80</dim>
				</port>
			</input>
			<output>
				<port id="1" precision="FP32" names="/model.4/cv2/cv2.0/m/m.1/cv2/act/Mul_output_0">
					<dim>1</dim>
					<dim>32</dim>
					<dim>80</dim>
					<dim>80</dim>
				</port>
			</output>
		</layer>
		<layer id="103" name="/model.4/cv2/cv2.0/m/m.1/Add" type="Add" version="opset1">
			<data auto_broadcast="numpy" />
			<input>
				<port id="0" precision="FP32">
					<dim>1</dim>
					<dim>32</dim>
					<dim>80</dim>
					<dim>80</dim>
				</port>
				<port id="1" precision="FP32">
					<dim>1</dim>
					<dim>32</dim>
					<dim>80</dim>
					<dim>80</dim>
				</port>
			</input>
			<output>
				<port id="2" precision="FP32" names="/model.4/cv2/cv2.0/m/m.1/Add_output_0">
					<dim>1</dim>
					<dim>32</dim>
					<dim>80</dim>
					<dim>80</dim>
				</port>
			</output>
		</layer>
		<layer id="104" name="model.4.cv2.0.m.2.cv1.conv.weight_compressed" type="Const" version="opset1">
			<data element_type="f16" shape="32, 32, 3, 3" offset="393128" size="18432" />
			<output>
				<port id="0" precision="FP16">
					<dim>32</dim>
					<dim>32</dim>
					<dim>3</dim>
					<dim>3</dim>
				</port>
			</output>
		</layer>
		<layer id="105" name="model.4.cv2.0.m.2.cv1.conv.weight" type="Convert" version="opset1">
			<data destination_type="f32" />
			<rt_info>
				<attribute name="decompression" version="0" />
			</rt_info>
			<input>
				<port id="0" precision="FP16">
					<dim>32</dim>
					<dim>32</dim>
					<dim>3</dim>
					<dim>3</dim>
				</port>
			</input>
			<output>
				<port id="1" precision="FP32" names="model.4.cv2.0.m.2.cv1.conv.weight">
					<dim>32</dim>
					<dim>32</dim>
					<dim>3</dim>
					<dim>3</dim>
				</port>
			</output>
		</layer>
		<layer id="106" name="/model.4/cv2/cv2.0/m/m.2/cv1/conv/Conv/WithoutBiases" type="Convolution" version="opset1">
			<data strides="1, 1" dilations="1, 1" pads_begin="1, 1" pads_end="1, 1" auto_pad="explicit" />
			<input>
				<port id="0" precision="FP32">
					<dim>1</dim>
					<dim>32</dim>
					<dim>80</dim>
					<dim>80</dim>
				</port>
				<port id="1" precision="FP32">
					<dim>32</dim>
					<dim>32</dim>
					<dim>3</dim>
					<dim>3</dim>
				</port>
			</input>
			<output>
				<port id="2" precision="FP32">
					<dim>1</dim>
					<dim>32</dim>
					<dim>80</dim>
					<dim>80</dim>
				</port>
			</output>
		</layer>
		<layer id="107" name="Reshape_1180_compressed" type="Const" version="opset1">
			<data element_type="f16" shape="1, 32, 1, 1" offset="411560" size="64" />
			<output>
				<port id="0" precision="FP16">
					<dim>1</dim>
					<dim>32</dim>
					<dim>1</dim>
					<dim>1</dim>
				</port>
			</output>
		</layer>
		<layer id="108" name="Reshape_1180" type="Convert" version="opset1">
			<data destination_type="f32" />
			<rt_info>
				<attribute name="decompression" version="0" />
			</rt_info>
			<input>
				<port id="0" precision="FP16">
					<dim>1</dim>
					<dim>32</dim>
					<dim>1</dim>
					<dim>1</dim>
				</port>
			</input>
			<output>
				<port id="1" precision="FP32">
					<dim>1</dim>
					<dim>32</dim>
					<dim>1</dim>
					<dim>1</dim>
				</port>
			</output>
		</layer>
		<layer id="109" name="/model.4/cv2/cv2.0/m/m.2/cv1/conv/Conv" type="Add" version="opset1">
			<data auto_broadcast="numpy" />
			<input>
				<port id="0" precision="FP32">
					<dim>1</dim>
					<dim>32</dim>
					<dim>80</dim>
					<dim>80</dim>
				</port>
				<port id="1" precision="FP32">
					<dim>1</dim>
					<dim>32</dim>
					<dim>1</dim>
					<dim>1</dim>
				</port>
			</input>
			<output>
				<port id="2" precision="FP32" names="/model.4/cv2/cv2.0/m/m.2/cv1/conv/Conv_output_0">
					<dim>1</dim>
					<dim>32</dim>
					<dim>80</dim>
					<dim>80</dim>
				</port>
			</output>
		</layer>
		<layer id="110" name="/model.4/cv2/cv2.0/m/m.2/cv1/act/Mul" type="Swish" version="opset4">
			<input>
				<port id="0" precision="FP32">
					<dim>1</dim>
					<dim>32</dim>
					<dim>80</dim>
					<dim>80</dim>
				</port>
			</input>
			<output>
				<port id="1" precision="FP32" names="/model.4/cv2/cv2.0/m/m.2/cv1/act/Mul_output_0">
					<dim>1</dim>
					<dim>32</dim>
					<dim>80</dim>
					<dim>80</dim>
				</port>
			</output>
		</layer>
		<layer id="111" name="model.4.cv2.0.m.2.cv2.conv.weight_compressed" type="Const" version="opset1">
			<data element_type="f16" shape="32, 32, 3, 3" offset="411624" size="18432" />
			<output>
				<port id="0" precision="FP16">
					<dim>32</dim>
					<dim>32</dim>
					<dim>3</dim>
					<dim>3</dim>
				</port>
			</output>
		</layer>
		<layer id="112" name="model.4.cv2.0.m.2.cv2.conv.weight" type="Convert" version="opset1">
			<data destination_type="f32" />
			<rt_info>
				<attribute name="decompression" version="0" />
			</rt_info>
			<input>
				<port id="0" precision="FP16">
					<dim>32</dim>
					<dim>32</dim>
					<dim>3</dim>
					<dim>3</dim>
				</port>
			</input>
			<output>
				<port id="1" precision="FP32" names="model.4.cv2.0.m.2.cv2.conv.weight">
					<dim>32</dim>
					<dim>32</dim>
					<dim>3</dim>
					<dim>3</dim>
				</port>
			</output>
		</layer>
		<layer id="113" name="/model.4/cv2/cv2.0/m/m.2/cv2/conv/Conv/WithoutBiases" type="Convolution" version="opset1">
			<data strides="1, 1" dilations="1, 1" pads_begin="1, 1" pads_end="1, 1" auto_pad="explicit" />
			<input>
				<port id="0" precision="FP32">
					<dim>1</dim>
					<dim>32</dim>
					<dim>80</dim>
					<dim>80</dim>
				</port>
				<port id="1" precision="FP32">
					<dim>32</dim>
					<dim>32</dim>
					<dim>3</dim>
					<dim>3</dim>
				</port>
			</input>
			<output>
				<port id="2" precision="FP32">
					<dim>1</dim>
					<dim>32</dim>
					<dim>80</dim>
					<dim>80</dim>
				</port>
			</output>
		</layer>
		<layer id="114" name="Reshape_1230_compressed" type="Const" version="opset1">
			<data element_type="f16" shape="1, 32, 1, 1" offset="430056" size="64" />
			<output>
				<port id="0" precision="FP16">
					<dim>1</dim>
					<dim>32</dim>
					<dim>1</dim>
					<dim>1</dim>
				</port>
			</output>
		</layer>
		<layer id="115" name="Reshape_1230" type="Convert" version="opset1">
			<data destination_type="f32" />
			<rt_info>
				<attribute name="decompression" version="0" />
			</rt_info>
			<input>
				<port id="0" precision="FP16">
					<dim>1</dim>
					<dim>32</dim>
					<dim>1</dim>
					<dim>1</dim>
				</port>
			</input>
			<output>
				<port id="1" precision="FP32">
					<dim>1</dim>
					<dim>32</dim>
					<dim>1</dim>
					<dim>1</dim>
				</port>
			</output>
		</layer>
		<layer id="116" name="/model.4/cv2/cv2.0/m/m.2/cv2/conv/Conv" type="Add" version="opset1">
			<data auto_broadcast="numpy" />
			<input>
				<port id="0" precision="FP32">
					<dim>1</dim>
					<dim>32</dim>
					<dim>80</dim>
					<dim>80</dim>
				</port>
				<port id="1" precision="FP32">
					<dim>1</dim>
					<dim>32</dim>
					<dim>1</dim>
					<dim>1</dim>
				</port>
			</input>
			<output>
				<port id="2" precision="FP32" names="/model.4/cv2/cv2.0/m/m.2/cv2/conv/Conv_output_0">
					<dim>1</dim>
					<dim>32</dim>
					<dim>80</dim>
					<dim>80</dim>
				</port>
			</output>
		</layer>
		<layer id="117" name="/model.4/cv2/cv2.0/m/m.2/cv2/act/Mul" type="Swish" version="opset4">
			<input>
				<port id="0" precision="FP32">
					<dim>1</dim>
					<dim>32</dim>
					<dim>80</dim>
					<dim>80</dim>
				</port>
			</input>
			<output>
				<port id="1" precision="FP32" names="/model.4/cv2/cv2.0/m/m.2/cv2/act/Mul_output_0">
					<dim>1</dim>
					<dim>32</dim>
					<dim>80</dim>
					<dim>80</dim>
				</port>
			</output>
		</layer>
		<layer id="118" name="/model.4/cv2/cv2.0/m/m.2/Add" type="Add" version="opset1">
			<data auto_broadcast="numpy" />
			<input>
				<port id="0" precision="FP32">
					<dim>1</dim>
					<dim>32</dim>
					<dim>80</dim>
					<dim>80</dim>
				</port>
				<port id="1" precision="FP32">
					<dim>1</dim>
					<dim>32</dim>
					<dim>80</dim>
					<dim>80</dim>
				</port>
			</input>
			<output>
				<port id="2" precision="FP32" names="/model.4/cv2/cv2.0/m/m.2/Add_output_0">
					<dim>1</dim>
					<dim>32</dim>
					<dim>80</dim>
					<dim>80</dim>
				</port>
			</output>
		</layer>
		<layer id="119" name="model.4.cv2.0.cv2.conv.weight_compressed" type="Const" version="opset1">
			<data element_type="f16" shape="32, 64, 1, 1" offset="430120" size="4096" />
			<output>
				<port id="0" precision="FP16">
					<dim>32</dim>
					<dim>64</dim>
					<dim>1</dim>
					<dim>1</dim>
				</port>
			</output>
		</layer>
		<layer id="120" name="model.4.cv2.0.cv2.conv.weight" type="Convert" version="opset1">
			<data destination_type="f32" />
			<rt_info>
				<attribute name="decompression" version="0" />
			</rt_info>
			<input>
				<port id="0" precision="FP16">
					<dim>32</dim>
					<dim>64</dim>
					<dim>1</dim>
					<dim>1</dim>
				</port>
			</input>
			<output>
				<port id="1" precision="FP32" names="model.4.cv2.0.cv2.conv.weight">
					<dim>32</dim>
					<dim>64</dim>
					<dim>1</dim>
					<dim>1</dim>
				</port>
			</output>
		</layer>
		<layer id="121" name="/model.4/cv2/cv2.0/cv2/conv/Conv/WithoutBiases" type="Convolution" version="opset1">
			<data strides="1, 1" dilations="1, 1" pads_begin="0, 0" pads_end="0, 0" auto_pad="explicit" />
			<input>
				<port id="0" precision="FP32">
					<dim>1</dim>
					<dim>64</dim>
					<dim>80</dim>
					<dim>80</dim>
				</port>
				<port id="1" precision="FP32">
					<dim>32</dim>
					<dim>64</dim>
					<dim>1</dim>
					<dim>1</dim>
				</port>
			</input>
			<output>
				<port id="2" precision="FP32">
					<dim>1</dim>
					<dim>32</dim>
					<dim>80</dim>
					<dim>80</dim>
				</port>
			</output>
		</layer>
		<layer id="122" name="Reshape_1281_compressed" type="Const" version="opset1">
			<data element_type="f16" shape="1, 32, 1, 1" offset="434216" size="64" />
			<output>
				<port id="0" precision="FP16">
					<dim>1</dim>
					<dim>32</dim>
					<dim>1</dim>
					<dim>1</dim>
				</port>
			</output>
		</layer>
		<layer id="123" name="Reshape_1281" type="Convert" version="opset1">
			<data destination_type="f32" />
			<rt_info>
				<attribute name="decompression" version="0" />
			</rt_info>
			<input>
				<port id="0" precision="FP16">
					<dim>1</dim>
					<dim>32</dim>
					<dim>1</dim>
					<dim>1</dim>
				</port>
			</input>
			<output>
				<port id="1" precision="FP32">
					<dim>1</dim>
					<dim>32</dim>
					<dim>1</dim>
					<dim>1</dim>
				</port>
			</output>
		</layer>
		<layer id="124" name="/model.4/cv2/cv2.0/cv2/conv/Conv" type="Add" version="opset1">
			<data auto_broadcast="numpy" />
			<input>
				<port id="0" precision="FP32">
					<dim>1</dim>
					<dim>32</dim>
					<dim>80</dim>
					<dim>80</dim>
				</port>
				<port id="1" precision="FP32">
					<dim>1</dim>
					<dim>32</dim>
					<dim>1</dim>
					<dim>1</dim>
				</port>
			</input>
			<output>
				<port id="2" precision="FP32" names="/model.4/cv2/cv2.0/cv2/conv/Conv_output_0">
					<dim>1</dim>
					<dim>32</dim>
					<dim>80</dim>
					<dim>80</dim>
				</port>
			</output>
		</layer>
		<layer id="125" name="/model.4/cv2/cv2.0/cv2/act/Mul" type="Swish" version="opset4">
			<input>
				<port id="0" precision="FP32">
					<dim>1</dim>
					<dim>32</dim>
					<dim>80</dim>
					<dim>80</dim>
				</port>
			</input>
			<output>
				<port id="1" precision="FP32" names="/model.4/cv2/cv2.0/cv2/act/Mul_output_0">
					<dim>1</dim>
					<dim>32</dim>
					<dim>80</dim>
					<dim>80</dim>
				</port>
			</output>
		</layer>
		<layer id="126" name="/model.4/cv2/cv2.0/Concat" type="Concat" version="opset1">
			<data axis="1" />
			<input>
				<port id="0" precision="FP32">
					<dim>1</dim>
					<dim>32</dim>
					<dim>80</dim>
					<dim>80</dim>
				</port>
				<port id="1" precision="FP32">
					<dim>1</dim>
					<dim>32</dim>
					<dim>80</dim>
					<dim>80</dim>
				</port>
			</input>
			<output>
				<port id="2" precision="FP32" names="/model.4/cv2/cv2.0/Concat_output_0">
					<dim>1</dim>
					<dim>64</dim>
					<dim>80</dim>
					<dim>80</dim>
				</port>
			</output>
		</layer>
		<layer id="127" name="model.4.cv2.0.cv3.conv.weight_compressed" type="Const" version="opset1">
			<data element_type="f16" shape="64, 64, 1, 1" offset="434280" size="8192" />
			<output>
				<port id="0" precision="FP16">
					<dim>64</dim>
					<dim>64</dim>
					<dim>1</dim>
					<dim>1</dim>
				</port>
			</output>
		</layer>
		<layer id="128" name="model.4.cv2.0.cv3.conv.weight" type="Convert" version="opset1">
			<data destination_type="f32" />
			<rt_info>
				<attribute name="decompression" version="0" />
			</rt_info>
			<input>
				<port id="0" precision="FP16">
					<dim>64</dim>
					<dim>64</dim>
					<dim>1</dim>
					<dim>1</dim>
				</port>
			</input>
			<output>
				<port id="1" precision="FP32" names="model.4.cv2.0.cv3.conv.weight">
					<dim>64</dim>
					<dim>64</dim>
					<dim>1</dim>
					<dim>1</dim>
				</port>
			</output>
		</layer>
		<layer id="129" name="/model.4/cv2/cv2.0/cv3/conv/Conv/WithoutBiases" type="Convolution" version="opset1">
			<data strides="1, 1" dilations="1, 1" pads_begin="0, 0" pads_end="0, 0" auto_pad="explicit" />
			<input>
				<port id="0" precision="FP32">
					<dim>1</dim>
					<dim>64</dim>
					<dim>80</dim>
					<dim>80</dim>
				</port>
				<port id="1" precision="FP32">
					<dim>64</dim>
					<dim>64</dim>
					<dim>1</dim>
					<dim>1</dim>
				</port>
			</input>
			<output>
				<port id="2" precision="FP32">
					<dim>1</dim>
					<dim>64</dim>
					<dim>80</dim>
					<dim>80</dim>
				</port>
			</output>
		</layer>
		<layer id="130" name="Reshape_1332_compressed" type="Const" version="opset1">
			<data element_type="f16" shape="1, 64, 1, 1" offset="442472" size="128" />
			<output>
				<port id="0" precision="FP16">
					<dim>1</dim>
					<dim>64</dim>
					<dim>1</dim>
					<dim>1</dim>
				</port>
			</output>
		</layer>
		<layer id="131" name="Reshape_1332" type="Convert" version="opset1">
			<data destination_type="f32" />
			<rt_info>
				<attribute name="decompression" version="0" />
			</rt_info>
			<input>
				<port id="0" precision="FP16">
					<dim>1</dim>
					<dim>64</dim>
					<dim>1</dim>
					<dim>1</dim>
				</port>
			</input>
			<output>
				<port id="1" precision="FP32">
					<dim>1</dim>
					<dim>64</dim>
					<dim>1</dim>
					<dim>1</dim>
				</port>
			</output>
		</layer>
		<layer id="132" name="/model.4/cv2/cv2.0/cv3/conv/Conv" type="Add" version="opset1">
			<data auto_broadcast="numpy" />
			<input>
				<port id="0" precision="FP32">
					<dim>1</dim>
					<dim>64</dim>
					<dim>80</dim>
					<dim>80</dim>
				</port>
				<port id="1" precision="FP32">
					<dim>1</dim>
					<dim>64</dim>
					<dim>1</dim>
					<dim>1</dim>
				</port>
			</input>
			<output>
				<port id="2" precision="FP32" names="/model.4/cv2/cv2.0/cv3/conv/Conv_output_0">
					<dim>1</dim>
					<dim>64</dim>
					<dim>80</dim>
					<dim>80</dim>
				</port>
			</output>
		</layer>
		<layer id="133" name="/model.4/cv2/cv2.0/cv3/act/Mul" type="Swish" version="opset4">
			<input>
				<port id="0" precision="FP32">
					<dim>1</dim>
					<dim>64</dim>
					<dim>80</dim>
					<dim>80</dim>
				</port>
			</input>
			<output>
				<port id="1" precision="FP32" names="/model.4/cv2/cv2.0/cv3/act/Mul_output_0">
					<dim>1</dim>
					<dim>64</dim>
					<dim>80</dim>
					<dim>80</dim>
				</port>
			</output>
		</layer>
		<layer id="134" name="model.4.cv2.1.conv.weight_compressed" type="Const" version="opset1">
			<data element_type="f16" shape="64, 64, 3, 3" offset="442600" size="73728" />
			<output>
				<port id="0" precision="FP16">
					<dim>64</dim>
					<dim>64</dim>
					<dim>3</dim>
					<dim>3</dim>
				</port>
			</output>
		</layer>
		<layer id="135" name="model.4.cv2.1.conv.weight" type="Convert" version="opset1">
			<data destination_type="f32" />
			<rt_info>
				<attribute name="decompression" version="0" />
			</rt_info>
			<input>
				<port id="0" precision="FP16">
					<dim>64</dim>
					<dim>64</dim>
					<dim>3</dim>
					<dim>3</dim>
				</port>
			</input>
			<output>
				<port id="1" precision="FP32" names="model.4.cv2.1.conv.weight">
					<dim>64</dim>
					<dim>64</dim>
					<dim>3</dim>
					<dim>3</dim>
				</port>
			</output>
		</layer>
		<layer id="136" name="/model.4/cv2/cv2.1/conv/Conv/WithoutBiases" type="Convolution" version="opset1">
			<data strides="1, 1" dilations="1, 1" pads_begin="1, 1" pads_end="1, 1" auto_pad="explicit" />
			<input>
				<port id="0" precision="FP32">
					<dim>1</dim>
					<dim>64</dim>
					<dim>80</dim>
					<dim>80</dim>
				</port>
				<port id="1" precision="FP32">
					<dim>64</dim>
					<dim>64</dim>
					<dim>3</dim>
					<dim>3</dim>
				</port>
			</input>
			<output>
				<port id="2" precision="FP32">
					<dim>1</dim>
					<dim>64</dim>
					<dim>80</dim>
					<dim>80</dim>
				</port>
			</output>
		</layer>
		<layer id="137" name="Reshape_1382_compressed" type="Const" version="opset1">
			<data element_type="f16" shape="1, 64, 1, 1" offset="516328" size="128" />
			<output>
				<port id="0" precision="FP16">
					<dim>1</dim>
					<dim>64</dim>
					<dim>1</dim>
					<dim>1</dim>
				</port>
			</output>
		</layer>
		<layer id="138" name="Reshape_1382" type="Convert" version="opset1">
			<data destination_type="f32" />
			<rt_info>
				<attribute name="decompression" version="0" />
			</rt_info>
			<input>
				<port id="0" precision="FP16">
					<dim>1</dim>
					<dim>64</dim>
					<dim>1</dim>
					<dim>1</dim>
				</port>
			</input>
			<output>
				<port id="1" precision="FP32">
					<dim>1</dim>
					<dim>64</dim>
					<dim>1</dim>
					<dim>1</dim>
				</port>
			</output>
		</layer>
		<layer id="139" name="/model.4/cv2/cv2.1/conv/Conv" type="Add" version="opset1">
			<data auto_broadcast="numpy" />
			<input>
				<port id="0" precision="FP32">
					<dim>1</dim>
					<dim>64</dim>
					<dim>80</dim>
					<dim>80</dim>
				</port>
				<port id="1" precision="FP32">
					<dim>1</dim>
					<dim>64</dim>
					<dim>1</dim>
					<dim>1</dim>
				</port>
			</input>
			<output>
				<port id="2" precision="FP32" names="/model.4/cv2/cv2.1/conv/Conv_output_0">
					<dim>1</dim>
					<dim>64</dim>
					<dim>80</dim>
					<dim>80</dim>
				</port>
			</output>
		</layer>
		<layer id="140" name="/model.4/cv2/cv2.1/act/Mul" type="Swish" version="opset4">
			<input>
				<port id="0" precision="FP32">
					<dim>1</dim>
					<dim>64</dim>
					<dim>80</dim>
					<dim>80</dim>
				</port>
			</input>
			<output>
				<port id="1" precision="FP32" names="/model.4/cv2/cv2.1/act/Mul_output_0">
					<dim>1</dim>
					<dim>64</dim>
					<dim>80</dim>
					<dim>80</dim>
				</port>
			</output>
		</layer>
		<layer id="141" name="model.4.cv3.0.cv1.conv.weight_compressed" type="Const" version="opset1">
			<data element_type="f16" shape="32, 64, 1, 1" offset="516456" size="4096" />
			<output>
				<port id="0" precision="FP16">
					<dim>32</dim>
					<dim>64</dim>
					<dim>1</dim>
					<dim>1</dim>
				</port>
			</output>
		</layer>
		<layer id="142" name="model.4.cv3.0.cv1.conv.weight" type="Convert" version="opset1">
			<data destination_type="f32" />
			<rt_info>
				<attribute name="decompression" version="0" />
			</rt_info>
			<input>
				<port id="0" precision="FP16">
					<dim>32</dim>
					<dim>64</dim>
					<dim>1</dim>
					<dim>1</dim>
				</port>
			</input>
			<output>
				<port id="1" precision="FP32" names="model.4.cv3.0.cv1.conv.weight">
					<dim>32</dim>
					<dim>64</dim>
					<dim>1</dim>
					<dim>1</dim>
				</port>
			</output>
		</layer>
		<layer id="143" name="/model.4/cv3/cv3.0/cv1/conv/Conv/WithoutBiases" type="Convolution" version="opset1">
			<data strides="1, 1" dilations="1, 1" pads_begin="0, 0" pads_end="0, 0" auto_pad="explicit" />
			<input>
				<port id="0" precision="FP32">
					<dim>1</dim>
					<dim>64</dim>
					<dim>80</dim>
					<dim>80</dim>
				</port>
				<port id="1" precision="FP32">
					<dim>32</dim>
					<dim>64</dim>
					<dim>1</dim>
					<dim>1</dim>
				</port>
			</input>
			<output>
				<port id="2" precision="FP32">
					<dim>1</dim>
					<dim>32</dim>
					<dim>80</dim>
					<dim>80</dim>
				</port>
			</output>
		</layer>
		<layer id="144" name="Reshape_1432_compressed" type="Const" version="opset1">
			<data element_type="f16" shape="1, 32, 1, 1" offset="520552" size="64" />
			<output>
				<port id="0" precision="FP16">
					<dim>1</dim>
					<dim>32</dim>
					<dim>1</dim>
					<dim>1</dim>
				</port>
			</output>
		</layer>
		<layer id="145" name="Reshape_1432" type="Convert" version="opset1">
			<data destination_type="f32" />
			<rt_info>
				<attribute name="decompression" version="0" />
			</rt_info>
			<input>
				<port id="0" precision="FP16">
					<dim>1</dim>
					<dim>32</dim>
					<dim>1</dim>
					<dim>1</dim>
				</port>
			</input>
			<output>
				<port id="1" precision="FP32">
					<dim>1</dim>
					<dim>32</dim>
					<dim>1</dim>
					<dim>1</dim>
				</port>
			</output>
		</layer>
		<layer id="146" name="/model.4/cv3/cv3.0/cv1/conv/Conv" type="Add" version="opset1">
			<data auto_broadcast="numpy" />
			<input>
				<port id="0" precision="FP32">
					<dim>1</dim>
					<dim>32</dim>
					<dim>80</dim>
					<dim>80</dim>
				</port>
				<port id="1" precision="FP32">
					<dim>1</dim>
					<dim>32</dim>
					<dim>1</dim>
					<dim>1</dim>
				</port>
			</input>
			<output>
				<port id="2" precision="FP32" names="/model.4/cv3/cv3.0/cv1/conv/Conv_output_0">
					<dim>1</dim>
					<dim>32</dim>
					<dim>80</dim>
					<dim>80</dim>
				</port>
			</output>
		</layer>
		<layer id="147" name="/model.4/cv3/cv3.0/cv1/act/Mul" type="Swish" version="opset4">
			<input>
				<port id="0" precision="FP32">
					<dim>1</dim>
					<dim>32</dim>
					<dim>80</dim>
					<dim>80</dim>
				</port>
			</input>
			<output>
				<port id="1" precision="FP32" names="/model.4/cv3/cv3.0/cv1/act/Mul_output_0">
					<dim>1</dim>
					<dim>32</dim>
					<dim>80</dim>
					<dim>80</dim>
				</port>
			</output>
		</layer>
		<layer id="148" name="model.4.cv3.0.m.0.cv1.conv.weight_compressed" type="Const" version="opset1">
			<data element_type="f16" shape="32, 32, 3, 3" offset="520616" size="18432" />
			<output>
				<port id="0" precision="FP16">
					<dim>32</dim>
					<dim>32</dim>
					<dim>3</dim>
					<dim>3</dim>
				</port>
			</output>
		</layer>
		<layer id="149" name="model.4.cv3.0.m.0.cv1.conv.weight" type="Convert" version="opset1">
			<data destination_type="f32" />
			<rt_info>
				<attribute name="decompression" version="0" />
			</rt_info>
			<input>
				<port id="0" precision="FP16">
					<dim>32</dim>
					<dim>32</dim>
					<dim>3</dim>
					<dim>3</dim>
				</port>
			</input>
			<output>
				<port id="1" precision="FP32" names="model.4.cv3.0.m.0.cv1.conv.weight">
					<dim>32</dim>
					<dim>32</dim>
					<dim>3</dim>
					<dim>3</dim>
				</port>
			</output>
		</layer>
		<layer id="150" name="/model.4/cv3/cv3.0/m/m.0/cv1/conv/Conv/WithoutBiases" type="Convolution" version="opset1">
			<data strides="1, 1" dilations="1, 1" pads_begin="1, 1" pads_end="1, 1" auto_pad="explicit" />
			<input>
				<port id="0" precision="FP32">
					<dim>1</dim>
					<dim>32</dim>
					<dim>80</dim>
					<dim>80</dim>
				</port>
				<port id="1" precision="FP32">
					<dim>32</dim>
					<dim>32</dim>
					<dim>3</dim>
					<dim>3</dim>
				</port>
			</input>
			<output>
				<port id="2" precision="FP32">
					<dim>1</dim>
					<dim>32</dim>
					<dim>80</dim>
					<dim>80</dim>
				</port>
			</output>
		</layer>
		<layer id="151" name="Reshape_1482_compressed" type="Const" version="opset1">
			<data element_type="f16" shape="1, 32, 1, 1" offset="539048" size="64" />
			<output>
				<port id="0" precision="FP16">
					<dim>1</dim>
					<dim>32</dim>
					<dim>1</dim>
					<dim>1</dim>
				</port>
			</output>
		</layer>
		<layer id="152" name="Reshape_1482" type="Convert" version="opset1">
			<data destination_type="f32" />
			<rt_info>
				<attribute name="decompression" version="0" />
			</rt_info>
			<input>
				<port id="0" precision="FP16">
					<dim>1</dim>
					<dim>32</dim>
					<dim>1</dim>
					<dim>1</dim>
				</port>
			</input>
			<output>
				<port id="1" precision="FP32">
					<dim>1</dim>
					<dim>32</dim>
					<dim>1</dim>
					<dim>1</dim>
				</port>
			</output>
		</layer>
		<layer id="153" name="/model.4/cv3/cv3.0/m/m.0/cv1/conv/Conv" type="Add" version="opset1">
			<data auto_broadcast="numpy" />
			<input>
				<port id="0" precision="FP32">
					<dim>1</dim>
					<dim>32</dim>
					<dim>80</dim>
					<dim>80</dim>
				</port>
				<port id="1" precision="FP32">
					<dim>1</dim>
					<dim>32</dim>
					<dim>1</dim>
					<dim>1</dim>
				</port>
			</input>
			<output>
				<port id="2" precision="FP32" names="/model.4/cv3/cv3.0/m/m.0/cv1/conv/Conv_output_0">
					<dim>1</dim>
					<dim>32</dim>
					<dim>80</dim>
					<dim>80</dim>
				</port>
			</output>
		</layer>
		<layer id="154" name="/model.4/cv3/cv3.0/m/m.0/cv1/act/Mul" type="Swish" version="opset4">
			<input>
				<port id="0" precision="FP32">
					<dim>1</dim>
					<dim>32</dim>
					<dim>80</dim>
					<dim>80</dim>
				</port>
			</input>
			<output>
				<port id="1" precision="FP32" names="/model.4/cv3/cv3.0/m/m.0/cv1/act/Mul_output_0">
					<dim>1</dim>
					<dim>32</dim>
					<dim>80</dim>
					<dim>80</dim>
				</port>
			</output>
		</layer>
		<layer id="155" name="model.4.cv3.0.m.0.cv2.conv.weight_compressed" type="Const" version="opset1">
			<data element_type="f16" shape="32, 32, 3, 3" offset="539112" size="18432" />
			<output>
				<port id="0" precision="FP16">
					<dim>32</dim>
					<dim>32</dim>
					<dim>3</dim>
					<dim>3</dim>
				</port>
			</output>
		</layer>
		<layer id="156" name="model.4.cv3.0.m.0.cv2.conv.weight" type="Convert" version="opset1">
			<data destination_type="f32" />
			<rt_info>
				<attribute name="decompression" version="0" />
			</rt_info>
			<input>
				<port id="0" precision="FP16">
					<dim>32</dim>
					<dim>32</dim>
					<dim>3</dim>
					<dim>3</dim>
				</port>
			</input>
			<output>
				<port id="1" precision="FP32" names="model.4.cv3.0.m.0.cv2.conv.weight">
					<dim>32</dim>
					<dim>32</dim>
					<dim>3</dim>
					<dim>3</dim>
				</port>
			</output>
		</layer>
		<layer id="157" name="/model.4/cv3/cv3.0/m/m.0/cv2/conv/Conv/WithoutBiases" type="Convolution" version="opset1">
			<data strides="1, 1" dilations="1, 1" pads_begin="1, 1" pads_end="1, 1" auto_pad="explicit" />
			<input>
				<port id="0" precision="FP32">
					<dim>1</dim>
					<dim>32</dim>
					<dim>80</dim>
					<dim>80</dim>
				</port>
				<port id="1" precision="FP32">
					<dim>32</dim>
					<dim>32</dim>
					<dim>3</dim>
					<dim>3</dim>
				</port>
			</input>
			<output>
				<port id="2" precision="FP32">
					<dim>1</dim>
					<dim>32</dim>
					<dim>80</dim>
					<dim>80</dim>
				</port>
			</output>
		</layer>
		<layer id="158" name="Reshape_1532_compressed" type="Const" version="opset1">
			<data element_type="f16" shape="1, 32, 1, 1" offset="557544" size="64" />
			<output>
				<port id="0" precision="FP16">
					<dim>1</dim>
					<dim>32</dim>
					<dim>1</dim>
					<dim>1</dim>
				</port>
			</output>
		</layer>
		<layer id="159" name="Reshape_1532" type="Convert" version="opset1">
			<data destination_type="f32" />
			<rt_info>
				<attribute name="decompression" version="0" />
			</rt_info>
			<input>
				<port id="0" precision="FP16">
					<dim>1</dim>
					<dim>32</dim>
					<dim>1</dim>
					<dim>1</dim>
				</port>
			</input>
			<output>
				<port id="1" precision="FP32">
					<dim>1</dim>
					<dim>32</dim>
					<dim>1</dim>
					<dim>1</dim>
				</port>
			</output>
		</layer>
		<layer id="160" name="/model.4/cv3/cv3.0/m/m.0/cv2/conv/Conv" type="Add" version="opset1">
			<data auto_broadcast="numpy" />
			<input>
				<port id="0" precision="FP32">
					<dim>1</dim>
					<dim>32</dim>
					<dim>80</dim>
					<dim>80</dim>
				</port>
				<port id="1" precision="FP32">
					<dim>1</dim>
					<dim>32</dim>
					<dim>1</dim>
					<dim>1</dim>
				</port>
			</input>
			<output>
				<port id="2" precision="FP32" names="/model.4/cv3/cv3.0/m/m.0/cv2/conv/Conv_output_0">
					<dim>1</dim>
					<dim>32</dim>
					<dim>80</dim>
					<dim>80</dim>
				</port>
			</output>
		</layer>
		<layer id="161" name="/model.4/cv3/cv3.0/m/m.0/cv2/act/Mul" type="Swish" version="opset4">
			<input>
				<port id="0" precision="FP32">
					<dim>1</dim>
					<dim>32</dim>
					<dim>80</dim>
					<dim>80</dim>
				</port>
			</input>
			<output>
				<port id="1" precision="FP32" names="/model.4/cv3/cv3.0/m/m.0/cv2/act/Mul_output_0">
					<dim>1</dim>
					<dim>32</dim>
					<dim>80</dim>
					<dim>80</dim>
				</port>
			</output>
		</layer>
		<layer id="162" name="/model.4/cv3/cv3.0/m/m.0/Add" type="Add" version="opset1">
			<data auto_broadcast="numpy" />
			<input>
				<port id="0" precision="FP32">
					<dim>1</dim>
					<dim>32</dim>
					<dim>80</dim>
					<dim>80</dim>
				</port>
				<port id="1" precision="FP32">
					<dim>1</dim>
					<dim>32</dim>
					<dim>80</dim>
					<dim>80</dim>
				</port>
			</input>
			<output>
				<port id="2" precision="FP32" names="/model.4/cv3/cv3.0/m/m.0/Add_output_0">
					<dim>1</dim>
					<dim>32</dim>
					<dim>80</dim>
					<dim>80</dim>
				</port>
			</output>
		</layer>
		<layer id="163" name="model.4.cv3.0.m.1.cv1.conv.weight_compressed" type="Const" version="opset1">
			<data element_type="f16" shape="32, 32, 3, 3" offset="557608" size="18432" />
			<output>
				<port id="0" precision="FP16">
					<dim>32</dim>
					<dim>32</dim>
					<dim>3</dim>
					<dim>3</dim>
				</port>
			</output>
		</layer>
		<layer id="164" name="model.4.cv3.0.m.1.cv1.conv.weight" type="Convert" version="opset1">
			<data destination_type="f32" />
			<rt_info>
				<attribute name="decompression" version="0" />
			</rt_info>
			<input>
				<port id="0" precision="FP16">
					<dim>32</dim>
					<dim>32</dim>
					<dim>3</dim>
					<dim>3</dim>
				</port>
			</input>
			<output>
				<port id="1" precision="FP32" names="model.4.cv3.0.m.1.cv1.conv.weight">
					<dim>32</dim>
					<dim>32</dim>
					<dim>3</dim>
					<dim>3</dim>
				</port>
			</output>
		</layer>
		<layer id="165" name="/model.4/cv3/cv3.0/m/m.1/cv1/conv/Conv/WithoutBiases" type="Convolution" version="opset1">
			<data strides="1, 1" dilations="1, 1" pads_begin="1, 1" pads_end="1, 1" auto_pad="explicit" />
			<input>
				<port id="0" precision="FP32">
					<dim>1</dim>
					<dim>32</dim>
					<dim>80</dim>
					<dim>80</dim>
				</port>
				<port id="1" precision="FP32">
					<dim>32</dim>
					<dim>32</dim>
					<dim>3</dim>
					<dim>3</dim>
				</port>
			</input>
			<output>
				<port id="2" precision="FP32">
					<dim>1</dim>
					<dim>32</dim>
					<dim>80</dim>
					<dim>80</dim>
				</port>
			</output>
		</layer>
		<layer id="166" name="Reshape_1583_compressed" type="Const" version="opset1">
			<data element_type="f16" shape="1, 32, 1, 1" offset="576040" size="64" />
			<output>
				<port id="0" precision="FP16">
					<dim>1</dim>
					<dim>32</dim>
					<dim>1</dim>
					<dim>1</dim>
				</port>
			</output>
		</layer>
		<layer id="167" name="Reshape_1583" type="Convert" version="opset1">
			<data destination_type="f32" />
			<rt_info>
				<attribute name="decompression" version="0" />
			</rt_info>
			<input>
				<port id="0" precision="FP16">
					<dim>1</dim>
					<dim>32</dim>
					<dim>1</dim>
					<dim>1</dim>
				</port>
			</input>
			<output>
				<port id="1" precision="FP32">
					<dim>1</dim>
					<dim>32</dim>
					<dim>1</dim>
					<dim>1</dim>
				</port>
			</output>
		</layer>
		<layer id="168" name="/model.4/cv3/cv3.0/m/m.1/cv1/conv/Conv" type="Add" version="opset1">
			<data auto_broadcast="numpy" />
			<input>
				<port id="0" precision="FP32">
					<dim>1</dim>
					<dim>32</dim>
					<dim>80</dim>
					<dim>80</dim>
				</port>
				<port id="1" precision="FP32">
					<dim>1</dim>
					<dim>32</dim>
					<dim>1</dim>
					<dim>1</dim>
				</port>
			</input>
			<output>
				<port id="2" precision="FP32" names="/model.4/cv3/cv3.0/m/m.1/cv1/conv/Conv_output_0">
					<dim>1</dim>
					<dim>32</dim>
					<dim>80</dim>
					<dim>80</dim>
				</port>
			</output>
		</layer>
		<layer id="169" name="/model.4/cv3/cv3.0/m/m.1/cv1/act/Mul" type="Swish" version="opset4">
			<input>
				<port id="0" precision="FP32">
					<dim>1</dim>
					<dim>32</dim>
					<dim>80</dim>
					<dim>80</dim>
				</port>
			</input>
			<output>
				<port id="1" precision="FP32" names="/model.4/cv3/cv3.0/m/m.1/cv1/act/Mul_output_0">
					<dim>1</dim>
					<dim>32</dim>
					<dim>80</dim>
					<dim>80</dim>
				</port>
			</output>
		</layer>
		<layer id="170" name="model.4.cv3.0.m.1.cv2.conv.weight_compressed" type="Const" version="opset1">
			<data element_type="f16" shape="32, 32, 3, 3" offset="576104" size="18432" />
			<output>
				<port id="0" precision="FP16">
					<dim>32</dim>
					<dim>32</dim>
					<dim>3</dim>
					<dim>3</dim>
				</port>
			</output>
		</layer>
		<layer id="171" name="model.4.cv3.0.m.1.cv2.conv.weight" type="Convert" version="opset1">
			<data destination_type="f32" />
			<rt_info>
				<attribute name="decompression" version="0" />
			</rt_info>
			<input>
				<port id="0" precision="FP16">
					<dim>32</dim>
					<dim>32</dim>
					<dim>3</dim>
					<dim>3</dim>
				</port>
			</input>
			<output>
				<port id="1" precision="FP32" names="model.4.cv3.0.m.1.cv2.conv.weight">
					<dim>32</dim>
					<dim>32</dim>
					<dim>3</dim>
					<dim>3</dim>
				</port>
			</output>
		</layer>
		<layer id="172" name="/model.4/cv3/cv3.0/m/m.1/cv2/conv/Conv/WithoutBiases" type="Convolution" version="opset1">
			<data strides="1, 1" dilations="1, 1" pads_begin="1, 1" pads_end="1, 1" auto_pad="explicit" />
			<input>
				<port id="0" precision="FP32">
					<dim>1</dim>
					<dim>32</dim>
					<dim>80</dim>
					<dim>80</dim>
				</port>
				<port id="1" precision="FP32">
					<dim>32</dim>
					<dim>32</dim>
					<dim>3</dim>
					<dim>3</dim>
				</port>
			</input>
			<output>
				<port id="2" precision="FP32">
					<dim>1</dim>
					<dim>32</dim>
					<dim>80</dim>
					<dim>80</dim>
				</port>
			</output>
		</layer>
		<layer id="173" name="Reshape_1633_compressed" type="Const" version="opset1">
			<data element_type="f16" shape="1, 32, 1, 1" offset="594536" size="64" />
			<output>
				<port id="0" precision="FP16">
					<dim>1</dim>
					<dim>32</dim>
					<dim>1</dim>
					<dim>1</dim>
				</port>
			</output>
		</layer>
		<layer id="174" name="Reshape_1633" type="Convert" version="opset1">
			<data destination_type="f32" />
			<rt_info>
				<attribute name="decompression" version="0" />
			</rt_info>
			<input>
				<port id="0" precision="FP16">
					<dim>1</dim>
					<dim>32</dim>
					<dim>1</dim>
					<dim>1</dim>
				</port>
			</input>
			<output>
				<port id="1" precision="FP32">
					<dim>1</dim>
					<dim>32</dim>
					<dim>1</dim>
					<dim>1</dim>
				</port>
			</output>
		</layer>
		<layer id="175" name="/model.4/cv3/cv3.0/m/m.1/cv2/conv/Conv" type="Add" version="opset1">
			<data auto_broadcast="numpy" />
			<input>
				<port id="0" precision="FP32">
					<dim>1</dim>
					<dim>32</dim>
					<dim>80</dim>
					<dim>80</dim>
				</port>
				<port id="1" precision="FP32">
					<dim>1</dim>
					<dim>32</dim>
					<dim>1</dim>
					<dim>1</dim>
				</port>
			</input>
			<output>
				<port id="2" precision="FP32" names="/model.4/cv3/cv3.0/m/m.1/cv2/conv/Conv_output_0">
					<dim>1</dim>
					<dim>32</dim>
					<dim>80</dim>
					<dim>80</dim>
				</port>
			</output>
		</layer>
		<layer id="176" name="/model.4/cv3/cv3.0/m/m.1/cv2/act/Mul" type="Swish" version="opset4">
			<input>
				<port id="0" precision="FP32">
					<dim>1</dim>
					<dim>32</dim>
					<dim>80</dim>
					<dim>80</dim>
				</port>
			</input>
			<output>
				<port id="1" precision="FP32" names="/model.4/cv3/cv3.0/m/m.1/cv2/act/Mul_output_0">
					<dim>1</dim>
					<dim>32</dim>
					<dim>80</dim>
					<dim>80</dim>
				</port>
			</output>
		</layer>
		<layer id="177" name="/model.4/cv3/cv3.0/m/m.1/Add" type="Add" version="opset1">
			<data auto_broadcast="numpy" />
			<input>
				<port id="0" precision="FP32">
					<dim>1</dim>
					<dim>32</dim>
					<dim>80</dim>
					<dim>80</dim>
				</port>
				<port id="1" precision="FP32">
					<dim>1</dim>
					<dim>32</dim>
					<dim>80</dim>
					<dim>80</dim>
				</port>
			</input>
			<output>
				<port id="2" precision="FP32" names="/model.4/cv3/cv3.0/m/m.1/Add_output_0">
					<dim>1</dim>
					<dim>32</dim>
					<dim>80</dim>
					<dim>80</dim>
				</port>
			</output>
		</layer>
		<layer id="178" name="model.4.cv3.0.m.2.cv1.conv.weight_compressed" type="Const" version="opset1">
			<data element_type="f16" shape="32, 32, 3, 3" offset="594600" size="18432" />
			<output>
				<port id="0" precision="FP16">
					<dim>32</dim>
					<dim>32</dim>
					<dim>3</dim>
					<dim>3</dim>
				</port>
			</output>
		</layer>
		<layer id="179" name="model.4.cv3.0.m.2.cv1.conv.weight" type="Convert" version="opset1">
			<data destination_type="f32" />
			<rt_info>
				<attribute name="decompression" version="0" />
			</rt_info>
			<input>
				<port id="0" precision="FP16">
					<dim>32</dim>
					<dim>32</dim>
					<dim>3</dim>
					<dim>3</dim>
				</port>
			</input>
			<output>
				<port id="1" precision="FP32" names="model.4.cv3.0.m.2.cv1.conv.weight">
					<dim>32</dim>
					<dim>32</dim>
					<dim>3</dim>
					<dim>3</dim>
				</port>
			</output>
		</layer>
		<layer id="180" name="/model.4/cv3/cv3.0/m/m.2/cv1/conv/Conv/WithoutBiases" type="Convolution" version="opset1">
			<data strides="1, 1" dilations="1, 1" pads_begin="1, 1" pads_end="1, 1" auto_pad="explicit" />
			<input>
				<port id="0" precision="FP32">
					<dim>1</dim>
					<dim>32</dim>
					<dim>80</dim>
					<dim>80</dim>
				</port>
				<port id="1" precision="FP32">
					<dim>32</dim>
					<dim>32</dim>
					<dim>3</dim>
					<dim>3</dim>
				</port>
			</input>
			<output>
				<port id="2" precision="FP32">
					<dim>1</dim>
					<dim>32</dim>
					<dim>80</dim>
					<dim>80</dim>
				</port>
			</output>
		</layer>
		<layer id="181" name="Reshape_1684_compressed" type="Const" version="opset1">
			<data element_type="f16" shape="1, 32, 1, 1" offset="613032" size="64" />
			<output>
				<port id="0" precision="FP16">
					<dim>1</dim>
					<dim>32</dim>
					<dim>1</dim>
					<dim>1</dim>
				</port>
			</output>
		</layer>
		<layer id="182" name="Reshape_1684" type="Convert" version="opset1">
			<data destination_type="f32" />
			<rt_info>
				<attribute name="decompression" version="0" />
			</rt_info>
			<input>
				<port id="0" precision="FP16">
					<dim>1</dim>
					<dim>32</dim>
					<dim>1</dim>
					<dim>1</dim>
				</port>
			</input>
			<output>
				<port id="1" precision="FP32">
					<dim>1</dim>
					<dim>32</dim>
					<dim>1</dim>
					<dim>1</dim>
				</port>
			</output>
		</layer>
		<layer id="183" name="/model.4/cv3/cv3.0/m/m.2/cv1/conv/Conv" type="Add" version="opset1">
			<data auto_broadcast="numpy" />
			<input>
				<port id="0" precision="FP32">
					<dim>1</dim>
					<dim>32</dim>
					<dim>80</dim>
					<dim>80</dim>
				</port>
				<port id="1" precision="FP32">
					<dim>1</dim>
					<dim>32</dim>
					<dim>1</dim>
					<dim>1</dim>
				</port>
			</input>
			<output>
				<port id="2" precision="FP32" names="/model.4/cv3/cv3.0/m/m.2/cv1/conv/Conv_output_0">
					<dim>1</dim>
					<dim>32</dim>
					<dim>80</dim>
					<dim>80</dim>
				</port>
			</output>
		</layer>
		<layer id="184" name="/model.4/cv3/cv3.0/m/m.2/cv1/act/Mul" type="Swish" version="opset4">
			<input>
				<port id="0" precision="FP32">
					<dim>1</dim>
					<dim>32</dim>
					<dim>80</dim>
					<dim>80</dim>
				</port>
			</input>
			<output>
				<port id="1" precision="FP32" names="/model.4/cv3/cv3.0/m/m.2/cv1/act/Mul_output_0">
					<dim>1</dim>
					<dim>32</dim>
					<dim>80</dim>
					<dim>80</dim>
				</port>
			</output>
		</layer>
		<layer id="185" name="model.4.cv3.0.m.2.cv2.conv.weight_compressed" type="Const" version="opset1">
			<data element_type="f16" shape="32, 32, 3, 3" offset="613096" size="18432" />
			<output>
				<port id="0" precision="FP16">
					<dim>32</dim>
					<dim>32</dim>
					<dim>3</dim>
					<dim>3</dim>
				</port>
			</output>
		</layer>
		<layer id="186" name="model.4.cv3.0.m.2.cv2.conv.weight" type="Convert" version="opset1">
			<data destination_type="f32" />
			<rt_info>
				<attribute name="decompression" version="0" />
			</rt_info>
			<input>
				<port id="0" precision="FP16">
					<dim>32</dim>
					<dim>32</dim>
					<dim>3</dim>
					<dim>3</dim>
				</port>
			</input>
			<output>
				<port id="1" precision="FP32" names="model.4.cv3.0.m.2.cv2.conv.weight">
					<dim>32</dim>
					<dim>32</dim>
					<dim>3</dim>
					<dim>3</dim>
				</port>
			</output>
		</layer>
		<layer id="187" name="/model.4/cv3/cv3.0/m/m.2/cv2/conv/Conv/WithoutBiases" type="Convolution" version="opset1">
			<data strides="1, 1" dilations="1, 1" pads_begin="1, 1" pads_end="1, 1" auto_pad="explicit" />
			<input>
				<port id="0" precision="FP32">
					<dim>1</dim>
					<dim>32</dim>
					<dim>80</dim>
					<dim>80</dim>
				</port>
				<port id="1" precision="FP32">
					<dim>32</dim>
					<dim>32</dim>
					<dim>3</dim>
					<dim>3</dim>
				</port>
			</input>
			<output>
				<port id="2" precision="FP32">
					<dim>1</dim>
					<dim>32</dim>
					<dim>80</dim>
					<dim>80</dim>
				</port>
			</output>
		</layer>
		<layer id="188" name="Reshape_1734_compressed" type="Const" version="opset1">
			<data element_type="f16" shape="1, 32, 1, 1" offset="631528" size="64" />
			<output>
				<port id="0" precision="FP16">
					<dim>1</dim>
					<dim>32</dim>
					<dim>1</dim>
					<dim>1</dim>
				</port>
			</output>
		</layer>
		<layer id="189" name="Reshape_1734" type="Convert" version="opset1">
			<data destination_type="f32" />
			<rt_info>
				<attribute name="decompression" version="0" />
			</rt_info>
			<input>
				<port id="0" precision="FP16">
					<dim>1</dim>
					<dim>32</dim>
					<dim>1</dim>
					<dim>1</dim>
				</port>
			</input>
			<output>
				<port id="1" precision="FP32">
					<dim>1</dim>
					<dim>32</dim>
					<dim>1</dim>
					<dim>1</dim>
				</port>
			</output>
		</layer>
		<layer id="190" name="/model.4/cv3/cv3.0/m/m.2/cv2/conv/Conv" type="Add" version="opset1">
			<data auto_broadcast="numpy" />
			<input>
				<port id="0" precision="FP32">
					<dim>1</dim>
					<dim>32</dim>
					<dim>80</dim>
					<dim>80</dim>
				</port>
				<port id="1" precision="FP32">
					<dim>1</dim>
					<dim>32</dim>
					<dim>1</dim>
					<dim>1</dim>
				</port>
			</input>
			<output>
				<port id="2" precision="FP32" names="/model.4/cv3/cv3.0/m/m.2/cv2/conv/Conv_output_0">
					<dim>1</dim>
					<dim>32</dim>
					<dim>80</dim>
					<dim>80</dim>
				</port>
			</output>
		</layer>
		<layer id="191" name="/model.4/cv3/cv3.0/m/m.2/cv2/act/Mul" type="Swish" version="opset4">
			<input>
				<port id="0" precision="FP32">
					<dim>1</dim>
					<dim>32</dim>
					<dim>80</dim>
					<dim>80</dim>
				</port>
			</input>
			<output>
				<port id="1" precision="FP32" names="/model.4/cv3/cv3.0/m/m.2/cv2/act/Mul_output_0">
					<dim>1</dim>
					<dim>32</dim>
					<dim>80</dim>
					<dim>80</dim>
				</port>
			</output>
		</layer>
		<layer id="192" name="/model.4/cv3/cv3.0/m/m.2/Add" type="Add" version="opset1">
			<data auto_broadcast="numpy" />
			<input>
				<port id="0" precision="FP32">
					<dim>1</dim>
					<dim>32</dim>
					<dim>80</dim>
					<dim>80</dim>
				</port>
				<port id="1" precision="FP32">
					<dim>1</dim>
					<dim>32</dim>
					<dim>80</dim>
					<dim>80</dim>
				</port>
			</input>
			<output>
				<port id="2" precision="FP32" names="/model.4/cv3/cv3.0/m/m.2/Add_output_0">
					<dim>1</dim>
					<dim>32</dim>
					<dim>80</dim>
					<dim>80</dim>
				</port>
			</output>
		</layer>
		<layer id="193" name="model.4.cv3.0.cv2.conv.weight_compressed" type="Const" version="opset1">
			<data element_type="f16" shape="32, 64, 1, 1" offset="631592" size="4096" />
			<output>
				<port id="0" precision="FP16">
					<dim>32</dim>
					<dim>64</dim>
					<dim>1</dim>
					<dim>1</dim>
				</port>
			</output>
		</layer>
		<layer id="194" name="model.4.cv3.0.cv2.conv.weight" type="Convert" version="opset1">
			<data destination_type="f32" />
			<rt_info>
				<attribute name="decompression" version="0" />
			</rt_info>
			<input>
				<port id="0" precision="FP16">
					<dim>32</dim>
					<dim>64</dim>
					<dim>1</dim>
					<dim>1</dim>
				</port>
			</input>
			<output>
				<port id="1" precision="FP32" names="model.4.cv3.0.cv2.conv.weight">
					<dim>32</dim>
					<dim>64</dim>
					<dim>1</dim>
					<dim>1</dim>
				</port>
			</output>
		</layer>
		<layer id="195" name="/model.4/cv3/cv3.0/cv2/conv/Conv/WithoutBiases" type="Convolution" version="opset1">
			<data strides="1, 1" dilations="1, 1" pads_begin="0, 0" pads_end="0, 0" auto_pad="explicit" />
			<input>
				<port id="0" precision="FP32">
					<dim>1</dim>
					<dim>64</dim>
					<dim>80</dim>
					<dim>80</dim>
				</port>
				<port id="1" precision="FP32">
					<dim>32</dim>
					<dim>64</dim>
					<dim>1</dim>
					<dim>1</dim>
				</port>
			</input>
			<output>
				<port id="2" precision="FP32">
					<dim>1</dim>
					<dim>32</dim>
					<dim>80</dim>
					<dim>80</dim>
				</port>
			</output>
		</layer>
		<layer id="196" name="Reshape_1785_compressed" type="Const" version="opset1">
			<data element_type="f16" shape="1, 32, 1, 1" offset="635688" size="64" />
			<output>
				<port id="0" precision="FP16">
					<dim>1</dim>
					<dim>32</dim>
					<dim>1</dim>
					<dim>1</dim>
				</port>
			</output>
		</layer>
		<layer id="197" name="Reshape_1785" type="Convert" version="opset1">
			<data destination_type="f32" />
			<rt_info>
				<attribute name="decompression" version="0" />
			</rt_info>
			<input>
				<port id="0" precision="FP16">
					<dim>1</dim>
					<dim>32</dim>
					<dim>1</dim>
					<dim>1</dim>
				</port>
			</input>
			<output>
				<port id="1" precision="FP32">
					<dim>1</dim>
					<dim>32</dim>
					<dim>1</dim>
					<dim>1</dim>
				</port>
			</output>
		</layer>
		<layer id="198" name="/model.4/cv3/cv3.0/cv2/conv/Conv" type="Add" version="opset1">
			<data auto_broadcast="numpy" />
			<input>
				<port id="0" precision="FP32">
					<dim>1</dim>
					<dim>32</dim>
					<dim>80</dim>
					<dim>80</dim>
				</port>
				<port id="1" precision="FP32">
					<dim>1</dim>
					<dim>32</dim>
					<dim>1</dim>
					<dim>1</dim>
				</port>
			</input>
			<output>
				<port id="2" precision="FP32" names="/model.4/cv3/cv3.0/cv2/conv/Conv_output_0">
					<dim>1</dim>
					<dim>32</dim>
					<dim>80</dim>
					<dim>80</dim>
				</port>
			</output>
		</layer>
		<layer id="199" name="/model.4/cv3/cv3.0/cv2/act/Mul" type="Swish" version="opset4">
			<input>
				<port id="0" precision="FP32">
					<dim>1</dim>
					<dim>32</dim>
					<dim>80</dim>
					<dim>80</dim>
				</port>
			</input>
			<output>
				<port id="1" precision="FP32" names="/model.4/cv3/cv3.0/cv2/act/Mul_output_0">
					<dim>1</dim>
					<dim>32</dim>
					<dim>80</dim>
					<dim>80</dim>
				</port>
			</output>
		</layer>
		<layer id="200" name="/model.4/cv3/cv3.0/Concat" type="Concat" version="opset1">
			<data axis="1" />
			<input>
				<port id="0" precision="FP32">
					<dim>1</dim>
					<dim>32</dim>
					<dim>80</dim>
					<dim>80</dim>
				</port>
				<port id="1" precision="FP32">
					<dim>1</dim>
					<dim>32</dim>
					<dim>80</dim>
					<dim>80</dim>
				</port>
			</input>
			<output>
				<port id="2" precision="FP32" names="/model.4/cv3/cv3.0/Concat_output_0">
					<dim>1</dim>
					<dim>64</dim>
					<dim>80</dim>
					<dim>80</dim>
				</port>
			</output>
		</layer>
		<layer id="201" name="model.4.cv3.0.cv3.conv.weight_compressed" type="Const" version="opset1">
			<data element_type="f16" shape="64, 64, 1, 1" offset="635752" size="8192" />
			<output>
				<port id="0" precision="FP16">
					<dim>64</dim>
					<dim>64</dim>
					<dim>1</dim>
					<dim>1</dim>
				</port>
			</output>
		</layer>
		<layer id="202" name="model.4.cv3.0.cv3.conv.weight" type="Convert" version="opset1">
			<data destination_type="f32" />
			<rt_info>
				<attribute name="decompression" version="0" />
			</rt_info>
			<input>
				<port id="0" precision="FP16">
					<dim>64</dim>
					<dim>64</dim>
					<dim>1</dim>
					<dim>1</dim>
				</port>
			</input>
			<output>
				<port id="1" precision="FP32" names="model.4.cv3.0.cv3.conv.weight">
					<dim>64</dim>
					<dim>64</dim>
					<dim>1</dim>
					<dim>1</dim>
				</port>
			</output>
		</layer>
		<layer id="203" name="/model.4/cv3/cv3.0/cv3/conv/Conv/WithoutBiases" type="Convolution" version="opset1">
			<data strides="1, 1" dilations="1, 1" pads_begin="0, 0" pads_end="0, 0" auto_pad="explicit" />
			<input>
				<port id="0" precision="FP32">
					<dim>1</dim>
					<dim>64</dim>
					<dim>80</dim>
					<dim>80</dim>
				</port>
				<port id="1" precision="FP32">
					<dim>64</dim>
					<dim>64</dim>
					<dim>1</dim>
					<dim>1</dim>
				</port>
			</input>
			<output>
				<port id="2" precision="FP32">
					<dim>1</dim>
					<dim>64</dim>
					<dim>80</dim>
					<dim>80</dim>
				</port>
			</output>
		</layer>
		<layer id="204" name="Reshape_1836_compressed" type="Const" version="opset1">
			<data element_type="f16" shape="1, 64, 1, 1" offset="643944" size="128" />
			<output>
				<port id="0" precision="FP16">
					<dim>1</dim>
					<dim>64</dim>
					<dim>1</dim>
					<dim>1</dim>
				</port>
			</output>
		</layer>
		<layer id="205" name="Reshape_1836" type="Convert" version="opset1">
			<data destination_type="f32" />
			<rt_info>
				<attribute name="decompression" version="0" />
			</rt_info>
			<input>
				<port id="0" precision="FP16">
					<dim>1</dim>
					<dim>64</dim>
					<dim>1</dim>
					<dim>1</dim>
				</port>
			</input>
			<output>
				<port id="1" precision="FP32">
					<dim>1</dim>
					<dim>64</dim>
					<dim>1</dim>
					<dim>1</dim>
				</port>
			</output>
		</layer>
		<layer id="206" name="/model.4/cv3/cv3.0/cv3/conv/Conv" type="Add" version="opset1">
			<data auto_broadcast="numpy" />
			<input>
				<port id="0" precision="FP32">
					<dim>1</dim>
					<dim>64</dim>
					<dim>80</dim>
					<dim>80</dim>
				</port>
				<port id="1" precision="FP32">
					<dim>1</dim>
					<dim>64</dim>
					<dim>1</dim>
					<dim>1</dim>
				</port>
			</input>
			<output>
				<port id="2" precision="FP32" names="/model.4/cv3/cv3.0/cv3/conv/Conv_output_0">
					<dim>1</dim>
					<dim>64</dim>
					<dim>80</dim>
					<dim>80</dim>
				</port>
			</output>
		</layer>
		<layer id="207" name="/model.4/cv3/cv3.0/cv3/act/Mul" type="Swish" version="opset4">
			<input>
				<port id="0" precision="FP32">
					<dim>1</dim>
					<dim>64</dim>
					<dim>80</dim>
					<dim>80</dim>
				</port>
			</input>
			<output>
				<port id="1" precision="FP32" names="/model.4/cv3/cv3.0/cv3/act/Mul_output_0">
					<dim>1</dim>
					<dim>64</dim>
					<dim>80</dim>
					<dim>80</dim>
				</port>
			</output>
		</layer>
		<layer id="208" name="model.4.cv3.1.conv.weight_compressed" type="Const" version="opset1">
			<data element_type="f16" shape="64, 64, 3, 3" offset="644072" size="73728" />
			<output>
				<port id="0" precision="FP16">
					<dim>64</dim>
					<dim>64</dim>
					<dim>3</dim>
					<dim>3</dim>
				</port>
			</output>
		</layer>
		<layer id="209" name="model.4.cv3.1.conv.weight" type="Convert" version="opset1">
			<data destination_type="f32" />
			<rt_info>
				<attribute name="decompression" version="0" />
			</rt_info>
			<input>
				<port id="0" precision="FP16">
					<dim>64</dim>
					<dim>64</dim>
					<dim>3</dim>
					<dim>3</dim>
				</port>
			</input>
			<output>
				<port id="1" precision="FP32" names="model.4.cv3.1.conv.weight">
					<dim>64</dim>
					<dim>64</dim>
					<dim>3</dim>
					<dim>3</dim>
				</port>
			</output>
		</layer>
		<layer id="210" name="/model.4/cv3/cv3.1/conv/Conv/WithoutBiases" type="Convolution" version="opset1">
			<data strides="1, 1" dilations="1, 1" pads_begin="1, 1" pads_end="1, 1" auto_pad="explicit" />
			<input>
				<port id="0" precision="FP32">
					<dim>1</dim>
					<dim>64</dim>
					<dim>80</dim>
					<dim>80</dim>
				</port>
				<port id="1" precision="FP32">
					<dim>64</dim>
					<dim>64</dim>
					<dim>3</dim>
					<dim>3</dim>
				</port>
			</input>
			<output>
				<port id="2" precision="FP32">
					<dim>1</dim>
					<dim>64</dim>
					<dim>80</dim>
					<dim>80</dim>
				</port>
			</output>
		</layer>
		<layer id="211" name="Reshape_1886_compressed" type="Const" version="opset1">
			<data element_type="f16" shape="1, 64, 1, 1" offset="717800" size="128" />
			<output>
				<port id="0" precision="FP16">
					<dim>1</dim>
					<dim>64</dim>
					<dim>1</dim>
					<dim>1</dim>
				</port>
			</output>
		</layer>
		<layer id="212" name="Reshape_1886" type="Convert" version="opset1">
			<data destination_type="f32" />
			<rt_info>
				<attribute name="decompression" version="0" />
			</rt_info>
			<input>
				<port id="0" precision="FP16">
					<dim>1</dim>
					<dim>64</dim>
					<dim>1</dim>
					<dim>1</dim>
				</port>
			</input>
			<output>
				<port id="1" precision="FP32">
					<dim>1</dim>
					<dim>64</dim>
					<dim>1</dim>
					<dim>1</dim>
				</port>
			</output>
		</layer>
		<layer id="213" name="/model.4/cv3/cv3.1/conv/Conv" type="Add" version="opset1">
			<data auto_broadcast="numpy" />
			<input>
				<port id="0" precision="FP32">
					<dim>1</dim>
					<dim>64</dim>
					<dim>80</dim>
					<dim>80</dim>
				</port>
				<port id="1" precision="FP32">
					<dim>1</dim>
					<dim>64</dim>
					<dim>1</dim>
					<dim>1</dim>
				</port>
			</input>
			<output>
				<port id="2" precision="FP32" names="/model.4/cv3/cv3.1/conv/Conv_output_0">
					<dim>1</dim>
					<dim>64</dim>
					<dim>80</dim>
					<dim>80</dim>
				</port>
			</output>
		</layer>
		<layer id="214" name="/model.4/cv3/cv3.1/act/Mul" type="Swish" version="opset4">
			<input>
				<port id="0" precision="FP32">
					<dim>1</dim>
					<dim>64</dim>
					<dim>80</dim>
					<dim>80</dim>
				</port>
			</input>
			<output>
				<port id="1" precision="FP32" names="/model.4/cv3/cv3.1/act/Mul_output_0">
					<dim>1</dim>
					<dim>64</dim>
					<dim>80</dim>
					<dim>80</dim>
				</port>
			</output>
		</layer>
		<layer id="215" name="/model.4/Concat" type="Concat" version="opset1">
			<data axis="1" />
			<input>
				<port id="0" precision="FP32">
					<dim>1</dim>
					<dim>64</dim>
					<dim>80</dim>
					<dim>80</dim>
				</port>
				<port id="1" precision="FP32">
					<dim>1</dim>
					<dim>64</dim>
					<dim>80</dim>
					<dim>80</dim>
				</port>
				<port id="2" precision="FP32">
					<dim>1</dim>
					<dim>64</dim>
					<dim>80</dim>
					<dim>80</dim>
				</port>
				<port id="3" precision="FP32">
					<dim>1</dim>
					<dim>64</dim>
					<dim>80</dim>
					<dim>80</dim>
				</port>
			</input>
			<output>
				<port id="4" precision="FP32" names="/model.4/Concat_output_0">
					<dim>1</dim>
					<dim>256</dim>
					<dim>80</dim>
					<dim>80</dim>
				</port>
			</output>
		</layer>
		<layer id="216" name="model.4.cv4.conv.weight_compressed" type="Const" version="opset1">
			<data element_type="f16" shape="128, 256, 1, 1" offset="717928" size="65536" />
			<output>
				<port id="0" precision="FP16">
					<dim>128</dim>
					<dim>256</dim>
					<dim>1</dim>
					<dim>1</dim>
				</port>
			</output>
		</layer>
		<layer id="217" name="model.4.cv4.conv.weight" type="Convert" version="opset1">
			<data destination_type="f32" />
			<rt_info>
				<attribute name="decompression" version="0" />
			</rt_info>
			<input>
				<port id="0" precision="FP16">
					<dim>128</dim>
					<dim>256</dim>
					<dim>1</dim>
					<dim>1</dim>
				</port>
			</input>
			<output>
				<port id="1" precision="FP32" names="model.4.cv4.conv.weight">
					<dim>128</dim>
					<dim>256</dim>
					<dim>1</dim>
					<dim>1</dim>
				</port>
			</output>
		</layer>
		<layer id="218" name="/model.4/cv4/conv/Conv/WithoutBiases" type="Convolution" version="opset1">
			<data strides="1, 1" dilations="1, 1" pads_begin="0, 0" pads_end="0, 0" auto_pad="explicit" />
			<input>
				<port id="0" precision="FP32">
					<dim>1</dim>
					<dim>256</dim>
					<dim>80</dim>
					<dim>80</dim>
				</port>
				<port id="1" precision="FP32">
					<dim>128</dim>
					<dim>256</dim>
					<dim>1</dim>
					<dim>1</dim>
				</port>
			</input>
			<output>
				<port id="2" precision="FP32">
					<dim>1</dim>
					<dim>128</dim>
					<dim>80</dim>
					<dim>80</dim>
				</port>
			</output>
		</layer>
		<layer id="219" name="Reshape_1937_compressed" type="Const" version="opset1">
			<data element_type="f16" shape="1, 128, 1, 1" offset="783464" size="256" />
			<output>
				<port id="0" precision="FP16">
					<dim>1</dim>
					<dim>128</dim>
					<dim>1</dim>
					<dim>1</dim>
				</port>
			</output>
		</layer>
		<layer id="220" name="Reshape_1937" type="Convert" version="opset1">
			<data destination_type="f32" />
			<rt_info>
				<attribute name="decompression" version="0" />
			</rt_info>
			<input>
				<port id="0" precision="FP16">
					<dim>1</dim>
					<dim>128</dim>
					<dim>1</dim>
					<dim>1</dim>
				</port>
			</input>
			<output>
				<port id="1" precision="FP32">
					<dim>1</dim>
					<dim>128</dim>
					<dim>1</dim>
					<dim>1</dim>
				</port>
			</output>
		</layer>
		<layer id="221" name="/model.4/cv4/conv/Conv" type="Add" version="opset1">
			<data auto_broadcast="numpy" />
			<input>
				<port id="0" precision="FP32">
					<dim>1</dim>
					<dim>128</dim>
					<dim>80</dim>
					<dim>80</dim>
				</port>
				<port id="1" precision="FP32">
					<dim>1</dim>
					<dim>128</dim>
					<dim>1</dim>
					<dim>1</dim>
				</port>
			</input>
			<output>
				<port id="2" precision="FP32" names="/model.4/cv4/conv/Conv_output_0">
					<dim>1</dim>
					<dim>128</dim>
					<dim>80</dim>
					<dim>80</dim>
				</port>
			</output>
		</layer>
		<layer id="222" name="/model.4/cv4/act/Mul" type="Swish" version="opset4">
			<input>
				<port id="0" precision="FP32">
					<dim>1</dim>
					<dim>128</dim>
					<dim>80</dim>
					<dim>80</dim>
				</port>
			</input>
			<output>
				<port id="1" precision="FP32" names="/model.4/cv4/act/Mul_output_0">
					<dim>1</dim>
					<dim>128</dim>
					<dim>80</dim>
					<dim>80</dim>
				</port>
			</output>
		</layer>
		<layer id="223" name="/model.5/AveragePool" type="AvgPool" version="opset1">
			<data kernel="2, 2" strides="1, 1" pads_begin="0, 0" pads_end="0, 0" exclude-pad="false" auto_pad="explicit" rounding_type="floor" />
			<input>
				<port id="0" precision="FP32">
					<dim>1</dim>
					<dim>128</dim>
					<dim>80</dim>
					<dim>80</dim>
				</port>
			</input>
			<output>
				<port id="1" precision="FP32" names="/model.5/AveragePool_output_0">
					<dim>1</dim>
					<dim>128</dim>
					<dim>79</dim>
					<dim>79</dim>
				</port>
			</output>
		</layer>
		<layer id="224" name="model.5.cv1.conv.weight_compressed" type="Const" version="opset1">
			<data element_type="f16" shape="192, 128, 3, 3" offset="783720" size="442368" />
			<output>
				<port id="0" precision="FP16">
					<dim>192</dim>
					<dim>128</dim>
					<dim>3</dim>
					<dim>3</dim>
				</port>
			</output>
		</layer>
		<layer id="225" name="model.5.cv1.conv.weight" type="Convert" version="opset1">
			<data destination_type="f32" />
			<rt_info>
				<attribute name="decompression" version="0" />
			</rt_info>
			<input>
				<port id="0" precision="FP16">
					<dim>192</dim>
					<dim>128</dim>
					<dim>3</dim>
					<dim>3</dim>
				</port>
			</input>
			<output>
				<port id="1" precision="FP32" names="model.5.cv1.conv.weight">
					<dim>192</dim>
					<dim>128</dim>
					<dim>3</dim>
					<dim>3</dim>
				</port>
			</output>
		</layer>
		<layer id="226" name="/model.5/cv1/conv/Conv/WithoutBiases" type="Convolution" version="opset1">
			<data strides="2, 2" dilations="1, 1" pads_begin="1, 1" pads_end="1, 1" auto_pad="explicit" />
			<input>
				<port id="0" precision="FP32">
					<dim>1</dim>
					<dim>128</dim>
					<dim>79</dim>
					<dim>79</dim>
				</port>
				<port id="1" precision="FP32">
					<dim>192</dim>
					<dim>128</dim>
					<dim>3</dim>
					<dim>3</dim>
				</port>
			</input>
			<output>
				<port id="2" precision="FP32">
					<dim>1</dim>
					<dim>192</dim>
					<dim>40</dim>
					<dim>40</dim>
				</port>
			</output>
		</layer>
		<layer id="227" name="Reshape_1988_compressed" type="Const" version="opset1">
			<data element_type="f16" shape="1, 192, 1, 1" offset="1226088" size="384" />
			<output>
				<port id="0" precision="FP16">
					<dim>1</dim>
					<dim>192</dim>
					<dim>1</dim>
					<dim>1</dim>
				</port>
			</output>
		</layer>
		<layer id="228" name="Reshape_1988" type="Convert" version="opset1">
			<data destination_type="f32" />
			<rt_info>
				<attribute name="decompression" version="0" />
			</rt_info>
			<input>
				<port id="0" precision="FP16">
					<dim>1</dim>
					<dim>192</dim>
					<dim>1</dim>
					<dim>1</dim>
				</port>
			</input>
			<output>
				<port id="1" precision="FP32">
					<dim>1</dim>
					<dim>192</dim>
					<dim>1</dim>
					<dim>1</dim>
				</port>
			</output>
		</layer>
		<layer id="229" name="/model.5/cv1/conv/Conv" type="Add" version="opset1">
			<data auto_broadcast="numpy" />
			<input>
				<port id="0" precision="FP32">
					<dim>1</dim>
					<dim>192</dim>
					<dim>40</dim>
					<dim>40</dim>
				</port>
				<port id="1" precision="FP32">
					<dim>1</dim>
					<dim>192</dim>
					<dim>1</dim>
					<dim>1</dim>
				</port>
			</input>
			<output>
				<port id="2" precision="FP32" names="/model.5/cv1/conv/Conv_output_0">
					<dim>1</dim>
					<dim>192</dim>
					<dim>40</dim>
					<dim>40</dim>
				</port>
			</output>
		</layer>
		<layer id="230" name="/model.5/cv1/act/Mul" type="Swish" version="opset4">
			<input>
				<port id="0" precision="FP32">
					<dim>1</dim>
					<dim>192</dim>
					<dim>40</dim>
					<dim>40</dim>
				</port>
			</input>
			<output>
				<port id="1" precision="FP32" names="/model.5/cv1/act/Mul_output_0">
					<dim>1</dim>
					<dim>192</dim>
					<dim>40</dim>
					<dim>40</dim>
				</port>
			</output>
		</layer>
		<layer id="231" name="model.6.cv1.conv.weight_compressed" type="Const" version="opset1">
			<data element_type="f16" shape="192, 192, 1, 1" offset="1226472" size="73728" />
			<output>
				<port id="0" precision="FP16">
					<dim>192</dim>
					<dim>192</dim>
					<dim>1</dim>
					<dim>1</dim>
				</port>
			</output>
		</layer>
		<layer id="232" name="model.6.cv1.conv.weight" type="Convert" version="opset1">
			<data destination_type="f32" />
			<rt_info>
				<attribute name="decompression" version="0" />
			</rt_info>
			<input>
				<port id="0" precision="FP16">
					<dim>192</dim>
					<dim>192</dim>
					<dim>1</dim>
					<dim>1</dim>
				</port>
			</input>
			<output>
				<port id="1" precision="FP32" names="model.6.cv1.conv.weight">
					<dim>192</dim>
					<dim>192</dim>
					<dim>1</dim>
					<dim>1</dim>
				</port>
			</output>
		</layer>
		<layer id="233" name="/model.6/cv1/conv/Conv/WithoutBiases" type="Convolution" version="opset1">
			<data strides="1, 1" dilations="1, 1" pads_begin="0, 0" pads_end="0, 0" auto_pad="explicit" />
			<input>
				<port id="0" precision="FP32">
					<dim>1</dim>
					<dim>192</dim>
					<dim>40</dim>
					<dim>40</dim>
				</port>
				<port id="1" precision="FP32">
					<dim>192</dim>
					<dim>192</dim>
					<dim>1</dim>
					<dim>1</dim>
				</port>
			</input>
			<output>
				<port id="2" precision="FP32">
					<dim>1</dim>
					<dim>192</dim>
					<dim>40</dim>
					<dim>40</dim>
				</port>
			</output>
		</layer>
		<layer id="234" name="Reshape_2038_compressed" type="Const" version="opset1">
			<data element_type="f16" shape="1, 192, 1, 1" offset="1300200" size="384" />
			<output>
				<port id="0" precision="FP16">
					<dim>1</dim>
					<dim>192</dim>
					<dim>1</dim>
					<dim>1</dim>
				</port>
			</output>
		</layer>
		<layer id="235" name="Reshape_2038" type="Convert" version="opset1">
			<data destination_type="f32" />
			<rt_info>
				<attribute name="decompression" version="0" />
			</rt_info>
			<input>
				<port id="0" precision="FP16">
					<dim>1</dim>
					<dim>192</dim>
					<dim>1</dim>
					<dim>1</dim>
				</port>
			</input>
			<output>
				<port id="1" precision="FP32">
					<dim>1</dim>
					<dim>192</dim>
					<dim>1</dim>
					<dim>1</dim>
				</port>
			</output>
		</layer>
		<layer id="236" name="/model.6/cv1/conv/Conv" type="Add" version="opset1">
			<data auto_broadcast="numpy" />
			<input>
				<port id="0" precision="FP32">
					<dim>1</dim>
					<dim>192</dim>
					<dim>40</dim>
					<dim>40</dim>
				</port>
				<port id="1" precision="FP32">
					<dim>1</dim>
					<dim>192</dim>
					<dim>1</dim>
					<dim>1</dim>
				</port>
			</input>
			<output>
				<port id="2" precision="FP32" names="/model.6/cv1/conv/Conv_output_0">
					<dim>1</dim>
					<dim>192</dim>
					<dim>40</dim>
					<dim>40</dim>
				</port>
			</output>
		</layer>
		<layer id="237" name="/model.6/cv1/act/Mul" type="Swish" version="opset4">
			<input>
				<port id="0" precision="FP32">
					<dim>1</dim>
					<dim>192</dim>
					<dim>40</dim>
					<dim>40</dim>
				</port>
			</input>
			<output>
				<port id="1" precision="FP32" names="/model.6/cv1/act/Mul_output_0">
					<dim>1</dim>
					<dim>192</dim>
					<dim>40</dim>
					<dim>40</dim>
				</port>
			</output>
		</layer>
		<layer id="238" name="Constant_2068" type="Const" version="opset1">
			<data element_type="i64" shape="" offset="80704" size="8" />
			<output>
				<port id="0" precision="I64" />
			</output>
		</layer>
		<layer id="239" name="Constant_2069" type="Const" version="opset1">
			<data element_type="i64" shape="2" offset="1300584" size="16" />
			<output>
				<port id="0" precision="I64">
					<dim>2</dim>
				</port>
			</output>
		</layer>
		<layer id="240" name="/model.6/Split" type="VariadicSplit" version="opset1">
			<input>
				<port id="0" precision="FP32">
					<dim>1</dim>
					<dim>192</dim>
					<dim>40</dim>
					<dim>40</dim>
				</port>
				<port id="1" precision="I64" />
				<port id="2" precision="I64">
					<dim>2</dim>
				</port>
			</input>
			<output>
				<port id="3" precision="FP32" names="/model.6/Split_output_0">
					<dim>1</dim>
					<dim>96</dim>
					<dim>40</dim>
					<dim>40</dim>
				</port>
				<port id="4" precision="FP32" names="/model.6/Split_output_1">
					<dim>1</dim>
					<dim>96</dim>
					<dim>40</dim>
					<dim>40</dim>
				</port>
			</output>
		</layer>
		<layer id="241" name="model.6.cv2.0.cv1.conv.weight_compressed" type="Const" version="opset1">
			<data element_type="f16" shape="48, 96, 1, 1" offset="1300600" size="9216" />
			<output>
				<port id="0" precision="FP16">
					<dim>48</dim>
					<dim>96</dim>
					<dim>1</dim>
					<dim>1</dim>
				</port>
			</output>
		</layer>
		<layer id="242" name="model.6.cv2.0.cv1.conv.weight" type="Convert" version="opset1">
			<data destination_type="f32" />
			<rt_info>
				<attribute name="decompression" version="0" />
			</rt_info>
			<input>
				<port id="0" precision="FP16">
					<dim>48</dim>
					<dim>96</dim>
					<dim>1</dim>
					<dim>1</dim>
				</port>
			</input>
			<output>
				<port id="1" precision="FP32" names="model.6.cv2.0.cv1.conv.weight">
					<dim>48</dim>
					<dim>96</dim>
					<dim>1</dim>
					<dim>1</dim>
				</port>
			</output>
		</layer>
		<layer id="243" name="/model.6/cv2/cv2.0/cv1/conv/Conv/WithoutBiases" type="Convolution" version="opset1">
			<data strides="1, 1" dilations="1, 1" pads_begin="0, 0" pads_end="0, 0" auto_pad="explicit" />
			<input>
				<port id="0" precision="FP32">
					<dim>1</dim>
					<dim>96</dim>
					<dim>40</dim>
					<dim>40</dim>
				</port>
				<port id="1" precision="FP32">
					<dim>48</dim>
					<dim>96</dim>
					<dim>1</dim>
					<dim>1</dim>
				</port>
			</input>
			<output>
				<port id="2" precision="FP32">
					<dim>1</dim>
					<dim>48</dim>
					<dim>40</dim>
					<dim>40</dim>
				</port>
			</output>
		</layer>
		<layer id="244" name="Reshape_2091_compressed" type="Const" version="opset1">
			<data element_type="f16" shape="1, 48, 1, 1" offset="1309816" size="96" />
			<output>
				<port id="0" precision="FP16">
					<dim>1</dim>
					<dim>48</dim>
					<dim>1</dim>
					<dim>1</dim>
				</port>
			</output>
		</layer>
		<layer id="245" name="Reshape_2091" type="Convert" version="opset1">
			<data destination_type="f32" />
			<rt_info>
				<attribute name="decompression" version="0" />
			</rt_info>
			<input>
				<port id="0" precision="FP16">
					<dim>1</dim>
					<dim>48</dim>
					<dim>1</dim>
					<dim>1</dim>
				</port>
			</input>
			<output>
				<port id="1" precision="FP32">
					<dim>1</dim>
					<dim>48</dim>
					<dim>1</dim>
					<dim>1</dim>
				</port>
			</output>
		</layer>
		<layer id="246" name="/model.6/cv2/cv2.0/cv1/conv/Conv" type="Add" version="opset1">
			<data auto_broadcast="numpy" />
			<input>
				<port id="0" precision="FP32">
					<dim>1</dim>
					<dim>48</dim>
					<dim>40</dim>
					<dim>40</dim>
				</port>
				<port id="1" precision="FP32">
					<dim>1</dim>
					<dim>48</dim>
					<dim>1</dim>
					<dim>1</dim>
				</port>
			</input>
			<output>
				<port id="2" precision="FP32" names="/model.6/cv2/cv2.0/cv1/conv/Conv_output_0">
					<dim>1</dim>
					<dim>48</dim>
					<dim>40</dim>
					<dim>40</dim>
				</port>
			</output>
		</layer>
		<layer id="247" name="/model.6/cv2/cv2.0/cv1/act/Mul" type="Swish" version="opset4">
			<input>
				<port id="0" precision="FP32">
					<dim>1</dim>
					<dim>48</dim>
					<dim>40</dim>
					<dim>40</dim>
				</port>
			</input>
			<output>
				<port id="1" precision="FP32" names="/model.6/cv2/cv2.0/cv1/act/Mul_output_0">
					<dim>1</dim>
					<dim>48</dim>
					<dim>40</dim>
					<dim>40</dim>
				</port>
			</output>
		</layer>
		<layer id="248" name="model.6.cv2.0.m.0.cv1.conv.weight_compressed" type="Const" version="opset1">
			<data element_type="f16" shape="48, 48, 3, 3" offset="1309912" size="41472" />
			<output>
				<port id="0" precision="FP16">
					<dim>48</dim>
					<dim>48</dim>
					<dim>3</dim>
					<dim>3</dim>
				</port>
			</output>
		</layer>
		<layer id="249" name="model.6.cv2.0.m.0.cv1.conv.weight" type="Convert" version="opset1">
			<data destination_type="f32" />
			<rt_info>
				<attribute name="decompression" version="0" />
			</rt_info>
			<input>
				<port id="0" precision="FP16">
					<dim>48</dim>
					<dim>48</dim>
					<dim>3</dim>
					<dim>3</dim>
				</port>
			</input>
			<output>
				<port id="1" precision="FP32" names="model.6.cv2.0.m.0.cv1.conv.weight">
					<dim>48</dim>
					<dim>48</dim>
					<dim>3</dim>
					<dim>3</dim>
				</port>
			</output>
		</layer>
		<layer id="250" name="/model.6/cv2/cv2.0/m/m.0/cv1/conv/Conv/WithoutBiases" type="Convolution" version="opset1">
			<data strides="1, 1" dilations="1, 1" pads_begin="1, 1" pads_end="1, 1" auto_pad="explicit" />
			<input>
				<port id="0" precision="FP32">
					<dim>1</dim>
					<dim>48</dim>
					<dim>40</dim>
					<dim>40</dim>
				</port>
				<port id="1" precision="FP32">
					<dim>48</dim>
					<dim>48</dim>
					<dim>3</dim>
					<dim>3</dim>
				</port>
			</input>
			<output>
				<port id="2" precision="FP32">
					<dim>1</dim>
					<dim>48</dim>
					<dim>40</dim>
					<dim>40</dim>
				</port>
			</output>
		</layer>
		<layer id="251" name="Reshape_2141_compressed" type="Const" version="opset1">
			<data element_type="f16" shape="1, 48, 1, 1" offset="1351384" size="96" />
			<output>
				<port id="0" precision="FP16">
					<dim>1</dim>
					<dim>48</dim>
					<dim>1</dim>
					<dim>1</dim>
				</port>
			</output>
		</layer>
		<layer id="252" name="Reshape_2141" type="Convert" version="opset1">
			<data destination_type="f32" />
			<rt_info>
				<attribute name="decompression" version="0" />
			</rt_info>
			<input>
				<port id="0" precision="FP16">
					<dim>1</dim>
					<dim>48</dim>
					<dim>1</dim>
					<dim>1</dim>
				</port>
			</input>
			<output>
				<port id="1" precision="FP32">
					<dim>1</dim>
					<dim>48</dim>
					<dim>1</dim>
					<dim>1</dim>
				</port>
			</output>
		</layer>
		<layer id="253" name="/model.6/cv2/cv2.0/m/m.0/cv1/conv/Conv" type="Add" version="opset1">
			<data auto_broadcast="numpy" />
			<input>
				<port id="0" precision="FP32">
					<dim>1</dim>
					<dim>48</dim>
					<dim>40</dim>
					<dim>40</dim>
				</port>
				<port id="1" precision="FP32">
					<dim>1</dim>
					<dim>48</dim>
					<dim>1</dim>
					<dim>1</dim>
				</port>
			</input>
			<output>
				<port id="2" precision="FP32" names="/model.6/cv2/cv2.0/m/m.0/cv1/conv/Conv_output_0">
					<dim>1</dim>
					<dim>48</dim>
					<dim>40</dim>
					<dim>40</dim>
				</port>
			</output>
		</layer>
		<layer id="254" name="/model.6/cv2/cv2.0/m/m.0/cv1/act/Mul" type="Swish" version="opset4">
			<input>
				<port id="0" precision="FP32">
					<dim>1</dim>
					<dim>48</dim>
					<dim>40</dim>
					<dim>40</dim>
				</port>
			</input>
			<output>
				<port id="1" precision="FP32" names="/model.6/cv2/cv2.0/m/m.0/cv1/act/Mul_output_0">
					<dim>1</dim>
					<dim>48</dim>
					<dim>40</dim>
					<dim>40</dim>
				</port>
			</output>
		</layer>
		<layer id="255" name="model.6.cv2.0.m.0.cv2.conv.weight_compressed" type="Const" version="opset1">
			<data element_type="f16" shape="48, 48, 3, 3" offset="1351480" size="41472" />
			<output>
				<port id="0" precision="FP16">
					<dim>48</dim>
					<dim>48</dim>
					<dim>3</dim>
					<dim>3</dim>
				</port>
			</output>
		</layer>
		<layer id="256" name="model.6.cv2.0.m.0.cv2.conv.weight" type="Convert" version="opset1">
			<data destination_type="f32" />
			<rt_info>
				<attribute name="decompression" version="0" />
			</rt_info>
			<input>
				<port id="0" precision="FP16">
					<dim>48</dim>
					<dim>48</dim>
					<dim>3</dim>
					<dim>3</dim>
				</port>
			</input>
			<output>
				<port id="1" precision="FP32" names="model.6.cv2.0.m.0.cv2.conv.weight">
					<dim>48</dim>
					<dim>48</dim>
					<dim>3</dim>
					<dim>3</dim>
				</port>
			</output>
		</layer>
		<layer id="257" name="/model.6/cv2/cv2.0/m/m.0/cv2/conv/Conv/WithoutBiases" type="Convolution" version="opset1">
			<data strides="1, 1" dilations="1, 1" pads_begin="1, 1" pads_end="1, 1" auto_pad="explicit" />
			<input>
				<port id="0" precision="FP32">
					<dim>1</dim>
					<dim>48</dim>
					<dim>40</dim>
					<dim>40</dim>
				</port>
				<port id="1" precision="FP32">
					<dim>48</dim>
					<dim>48</dim>
					<dim>3</dim>
					<dim>3</dim>
				</port>
			</input>
			<output>
				<port id="2" precision="FP32">
					<dim>1</dim>
					<dim>48</dim>
					<dim>40</dim>
					<dim>40</dim>
				</port>
			</output>
		</layer>
		<layer id="258" name="Reshape_2191_compressed" type="Const" version="opset1">
			<data element_type="f16" shape="1, 48, 1, 1" offset="1392952" size="96" />
			<output>
				<port id="0" precision="FP16">
					<dim>1</dim>
					<dim>48</dim>
					<dim>1</dim>
					<dim>1</dim>
				</port>
			</output>
		</layer>
		<layer id="259" name="Reshape_2191" type="Convert" version="opset1">
			<data destination_type="f32" />
			<rt_info>
				<attribute name="decompression" version="0" />
			</rt_info>
			<input>
				<port id="0" precision="FP16">
					<dim>1</dim>
					<dim>48</dim>
					<dim>1</dim>
					<dim>1</dim>
				</port>
			</input>
			<output>
				<port id="1" precision="FP32">
					<dim>1</dim>
					<dim>48</dim>
					<dim>1</dim>
					<dim>1</dim>
				</port>
			</output>
		</layer>
		<layer id="260" name="/model.6/cv2/cv2.0/m/m.0/cv2/conv/Conv" type="Add" version="opset1">
			<data auto_broadcast="numpy" />
			<input>
				<port id="0" precision="FP32">
					<dim>1</dim>
					<dim>48</dim>
					<dim>40</dim>
					<dim>40</dim>
				</port>
				<port id="1" precision="FP32">
					<dim>1</dim>
					<dim>48</dim>
					<dim>1</dim>
					<dim>1</dim>
				</port>
			</input>
			<output>
				<port id="2" precision="FP32" names="/model.6/cv2/cv2.0/m/m.0/cv2/conv/Conv_output_0">
					<dim>1</dim>
					<dim>48</dim>
					<dim>40</dim>
					<dim>40</dim>
				</port>
			</output>
		</layer>
		<layer id="261" name="/model.6/cv2/cv2.0/m/m.0/cv2/act/Mul" type="Swish" version="opset4">
			<input>
				<port id="0" precision="FP32">
					<dim>1</dim>
					<dim>48</dim>
					<dim>40</dim>
					<dim>40</dim>
				</port>
			</input>
			<output>
				<port id="1" precision="FP32" names="/model.6/cv2/cv2.0/m/m.0/cv2/act/Mul_output_0">
					<dim>1</dim>
					<dim>48</dim>
					<dim>40</dim>
					<dim>40</dim>
				</port>
			</output>
		</layer>
		<layer id="262" name="/model.6/cv2/cv2.0/m/m.0/Add" type="Add" version="opset1">
			<data auto_broadcast="numpy" />
			<input>
				<port id="0" precision="FP32">
					<dim>1</dim>
					<dim>48</dim>
					<dim>40</dim>
					<dim>40</dim>
				</port>
				<port id="1" precision="FP32">
					<dim>1</dim>
					<dim>48</dim>
					<dim>40</dim>
					<dim>40</dim>
				</port>
			</input>
			<output>
				<port id="2" precision="FP32" names="/model.6/cv2/cv2.0/m/m.0/Add_output_0">
					<dim>1</dim>
					<dim>48</dim>
					<dim>40</dim>
					<dim>40</dim>
				</port>
			</output>
		</layer>
		<layer id="263" name="model.6.cv2.0.m.1.cv1.conv.weight_compressed" type="Const" version="opset1">
			<data element_type="f16" shape="48, 48, 3, 3" offset="1393048" size="41472" />
			<output>
				<port id="0" precision="FP16">
					<dim>48</dim>
					<dim>48</dim>
					<dim>3</dim>
					<dim>3</dim>
				</port>
			</output>
		</layer>
		<layer id="264" name="model.6.cv2.0.m.1.cv1.conv.weight" type="Convert" version="opset1">
			<data destination_type="f32" />
			<rt_info>
				<attribute name="decompression" version="0" />
			</rt_info>
			<input>
				<port id="0" precision="FP16">
					<dim>48</dim>
					<dim>48</dim>
					<dim>3</dim>
					<dim>3</dim>
				</port>
			</input>
			<output>
				<port id="1" precision="FP32" names="model.6.cv2.0.m.1.cv1.conv.weight">
					<dim>48</dim>
					<dim>48</dim>
					<dim>3</dim>
					<dim>3</dim>
				</port>
			</output>
		</layer>
		<layer id="265" name="/model.6/cv2/cv2.0/m/m.1/cv1/conv/Conv/WithoutBiases" type="Convolution" version="opset1">
			<data strides="1, 1" dilations="1, 1" pads_begin="1, 1" pads_end="1, 1" auto_pad="explicit" />
			<input>
				<port id="0" precision="FP32">
					<dim>1</dim>
					<dim>48</dim>
					<dim>40</dim>
					<dim>40</dim>
				</port>
				<port id="1" precision="FP32">
					<dim>48</dim>
					<dim>48</dim>
					<dim>3</dim>
					<dim>3</dim>
				</port>
			</input>
			<output>
				<port id="2" precision="FP32">
					<dim>1</dim>
					<dim>48</dim>
					<dim>40</dim>
					<dim>40</dim>
				</port>
			</output>
		</layer>
		<layer id="266" name="Reshape_2242_compressed" type="Const" version="opset1">
			<data element_type="f16" shape="1, 48, 1, 1" offset="1434520" size="96" />
			<output>
				<port id="0" precision="FP16">
					<dim>1</dim>
					<dim>48</dim>
					<dim>1</dim>
					<dim>1</dim>
				</port>
			</output>
		</layer>
		<layer id="267" name="Reshape_2242" type="Convert" version="opset1">
			<data destination_type="f32" />
			<rt_info>
				<attribute name="decompression" version="0" />
			</rt_info>
			<input>
				<port id="0" precision="FP16">
					<dim>1</dim>
					<dim>48</dim>
					<dim>1</dim>
					<dim>1</dim>
				</port>
			</input>
			<output>
				<port id="1" precision="FP32">
					<dim>1</dim>
					<dim>48</dim>
					<dim>1</dim>
					<dim>1</dim>
				</port>
			</output>
		</layer>
		<layer id="268" name="/model.6/cv2/cv2.0/m/m.1/cv1/conv/Conv" type="Add" version="opset1">
			<data auto_broadcast="numpy" />
			<input>
				<port id="0" precision="FP32">
					<dim>1</dim>
					<dim>48</dim>
					<dim>40</dim>
					<dim>40</dim>
				</port>
				<port id="1" precision="FP32">
					<dim>1</dim>
					<dim>48</dim>
					<dim>1</dim>
					<dim>1</dim>
				</port>
			</input>
			<output>
				<port id="2" precision="FP32" names="/model.6/cv2/cv2.0/m/m.1/cv1/conv/Conv_output_0">
					<dim>1</dim>
					<dim>48</dim>
					<dim>40</dim>
					<dim>40</dim>
				</port>
			</output>
		</layer>
		<layer id="269" name="/model.6/cv2/cv2.0/m/m.1/cv1/act/Mul" type="Swish" version="opset4">
			<input>
				<port id="0" precision="FP32">
					<dim>1</dim>
					<dim>48</dim>
					<dim>40</dim>
					<dim>40</dim>
				</port>
			</input>
			<output>
				<port id="1" precision="FP32" names="/model.6/cv2/cv2.0/m/m.1/cv1/act/Mul_output_0">
					<dim>1</dim>
					<dim>48</dim>
					<dim>40</dim>
					<dim>40</dim>
				</port>
			</output>
		</layer>
		<layer id="270" name="model.6.cv2.0.m.1.cv2.conv.weight_compressed" type="Const" version="opset1">
			<data element_type="f16" shape="48, 48, 3, 3" offset="1434616" size="41472" />
			<output>
				<port id="0" precision="FP16">
					<dim>48</dim>
					<dim>48</dim>
					<dim>3</dim>
					<dim>3</dim>
				</port>
			</output>
		</layer>
		<layer id="271" name="model.6.cv2.0.m.1.cv2.conv.weight" type="Convert" version="opset1">
			<data destination_type="f32" />
			<rt_info>
				<attribute name="decompression" version="0" />
			</rt_info>
			<input>
				<port id="0" precision="FP16">
					<dim>48</dim>
					<dim>48</dim>
					<dim>3</dim>
					<dim>3</dim>
				</port>
			</input>
			<output>
				<port id="1" precision="FP32" names="model.6.cv2.0.m.1.cv2.conv.weight">
					<dim>48</dim>
					<dim>48</dim>
					<dim>3</dim>
					<dim>3</dim>
				</port>
			</output>
		</layer>
		<layer id="272" name="/model.6/cv2/cv2.0/m/m.1/cv2/conv/Conv/WithoutBiases" type="Convolution" version="opset1">
			<data strides="1, 1" dilations="1, 1" pads_begin="1, 1" pads_end="1, 1" auto_pad="explicit" />
			<input>
				<port id="0" precision="FP32">
					<dim>1</dim>
					<dim>48</dim>
					<dim>40</dim>
					<dim>40</dim>
				</port>
				<port id="1" precision="FP32">
					<dim>48</dim>
					<dim>48</dim>
					<dim>3</dim>
					<dim>3</dim>
				</port>
			</input>
			<output>
				<port id="2" precision="FP32">
					<dim>1</dim>
					<dim>48</dim>
					<dim>40</dim>
					<dim>40</dim>
				</port>
			</output>
		</layer>
		<layer id="273" name="Reshape_2292_compressed" type="Const" version="opset1">
			<data element_type="f16" shape="1, 48, 1, 1" offset="1476088" size="96" />
			<output>
				<port id="0" precision="FP16">
					<dim>1</dim>
					<dim>48</dim>
					<dim>1</dim>
					<dim>1</dim>
				</port>
			</output>
		</layer>
		<layer id="274" name="Reshape_2292" type="Convert" version="opset1">
			<data destination_type="f32" />
			<rt_info>
				<attribute name="decompression" version="0" />
			</rt_info>
			<input>
				<port id="0" precision="FP16">
					<dim>1</dim>
					<dim>48</dim>
					<dim>1</dim>
					<dim>1</dim>
				</port>
			</input>
			<output>
				<port id="1" precision="FP32">
					<dim>1</dim>
					<dim>48</dim>
					<dim>1</dim>
					<dim>1</dim>
				</port>
			</output>
		</layer>
		<layer id="275" name="/model.6/cv2/cv2.0/m/m.1/cv2/conv/Conv" type="Add" version="opset1">
			<data auto_broadcast="numpy" />
			<input>
				<port id="0" precision="FP32">
					<dim>1</dim>
					<dim>48</dim>
					<dim>40</dim>
					<dim>40</dim>
				</port>
				<port id="1" precision="FP32">
					<dim>1</dim>
					<dim>48</dim>
					<dim>1</dim>
					<dim>1</dim>
				</port>
			</input>
			<output>
				<port id="2" precision="FP32" names="/model.6/cv2/cv2.0/m/m.1/cv2/conv/Conv_output_0">
					<dim>1</dim>
					<dim>48</dim>
					<dim>40</dim>
					<dim>40</dim>
				</port>
			</output>
		</layer>
		<layer id="276" name="/model.6/cv2/cv2.0/m/m.1/cv2/act/Mul" type="Swish" version="opset4">
			<input>
				<port id="0" precision="FP32">
					<dim>1</dim>
					<dim>48</dim>
					<dim>40</dim>
					<dim>40</dim>
				</port>
			</input>
			<output>
				<port id="1" precision="FP32" names="/model.6/cv2/cv2.0/m/m.1/cv2/act/Mul_output_0">
					<dim>1</dim>
					<dim>48</dim>
					<dim>40</dim>
					<dim>40</dim>
				</port>
			</output>
		</layer>
		<layer id="277" name="/model.6/cv2/cv2.0/m/m.1/Add" type="Add" version="opset1">
			<data auto_broadcast="numpy" />
			<input>
				<port id="0" precision="FP32">
					<dim>1</dim>
					<dim>48</dim>
					<dim>40</dim>
					<dim>40</dim>
				</port>
				<port id="1" precision="FP32">
					<dim>1</dim>
					<dim>48</dim>
					<dim>40</dim>
					<dim>40</dim>
				</port>
			</input>
			<output>
				<port id="2" precision="FP32" names="/model.6/cv2/cv2.0/m/m.1/Add_output_0">
					<dim>1</dim>
					<dim>48</dim>
					<dim>40</dim>
					<dim>40</dim>
				</port>
			</output>
		</layer>
		<layer id="278" name="model.6.cv2.0.m.2.cv1.conv.weight_compressed" type="Const" version="opset1">
			<data element_type="f16" shape="48, 48, 3, 3" offset="1476184" size="41472" />
			<output>
				<port id="0" precision="FP16">
					<dim>48</dim>
					<dim>48</dim>
					<dim>3</dim>
					<dim>3</dim>
				</port>
			</output>
		</layer>
		<layer id="279" name="model.6.cv2.0.m.2.cv1.conv.weight" type="Convert" version="opset1">
			<data destination_type="f32" />
			<rt_info>
				<attribute name="decompression" version="0" />
			</rt_info>
			<input>
				<port id="0" precision="FP16">
					<dim>48</dim>
					<dim>48</dim>
					<dim>3</dim>
					<dim>3</dim>
				</port>
			</input>
			<output>
				<port id="1" precision="FP32" names="model.6.cv2.0.m.2.cv1.conv.weight">
					<dim>48</dim>
					<dim>48</dim>
					<dim>3</dim>
					<dim>3</dim>
				</port>
			</output>
		</layer>
		<layer id="280" name="/model.6/cv2/cv2.0/m/m.2/cv1/conv/Conv/WithoutBiases" type="Convolution" version="opset1">
			<data strides="1, 1" dilations="1, 1" pads_begin="1, 1" pads_end="1, 1" auto_pad="explicit" />
			<input>
				<port id="0" precision="FP32">
					<dim>1</dim>
					<dim>48</dim>
					<dim>40</dim>
					<dim>40</dim>
				</port>
				<port id="1" precision="FP32">
					<dim>48</dim>
					<dim>48</dim>
					<dim>3</dim>
					<dim>3</dim>
				</port>
			</input>
			<output>
				<port id="2" precision="FP32">
					<dim>1</dim>
					<dim>48</dim>
					<dim>40</dim>
					<dim>40</dim>
				</port>
			</output>
		</layer>
		<layer id="281" name="Reshape_2343_compressed" type="Const" version="opset1">
			<data element_type="f16" shape="1, 48, 1, 1" offset="1517656" size="96" />
			<output>
				<port id="0" precision="FP16">
					<dim>1</dim>
					<dim>48</dim>
					<dim>1</dim>
					<dim>1</dim>
				</port>
			</output>
		</layer>
		<layer id="282" name="Reshape_2343" type="Convert" version="opset1">
			<data destination_type="f32" />
			<rt_info>
				<attribute name="decompression" version="0" />
			</rt_info>
			<input>
				<port id="0" precision="FP16">
					<dim>1</dim>
					<dim>48</dim>
					<dim>1</dim>
					<dim>1</dim>
				</port>
			</input>
			<output>
				<port id="1" precision="FP32">
					<dim>1</dim>
					<dim>48</dim>
					<dim>1</dim>
					<dim>1</dim>
				</port>
			</output>
		</layer>
		<layer id="283" name="/model.6/cv2/cv2.0/m/m.2/cv1/conv/Conv" type="Add" version="opset1">
			<data auto_broadcast="numpy" />
			<input>
				<port id="0" precision="FP32">
					<dim>1</dim>
					<dim>48</dim>
					<dim>40</dim>
					<dim>40</dim>
				</port>
				<port id="1" precision="FP32">
					<dim>1</dim>
					<dim>48</dim>
					<dim>1</dim>
					<dim>1</dim>
				</port>
			</input>
			<output>
				<port id="2" precision="FP32" names="/model.6/cv2/cv2.0/m/m.2/cv1/conv/Conv_output_0">
					<dim>1</dim>
					<dim>48</dim>
					<dim>40</dim>
					<dim>40</dim>
				</port>
			</output>
		</layer>
		<layer id="284" name="/model.6/cv2/cv2.0/m/m.2/cv1/act/Mul" type="Swish" version="opset4">
			<input>
				<port id="0" precision="FP32">
					<dim>1</dim>
					<dim>48</dim>
					<dim>40</dim>
					<dim>40</dim>
				</port>
			</input>
			<output>
				<port id="1" precision="FP32" names="/model.6/cv2/cv2.0/m/m.2/cv1/act/Mul_output_0">
					<dim>1</dim>
					<dim>48</dim>
					<dim>40</dim>
					<dim>40</dim>
				</port>
			</output>
		</layer>
		<layer id="285" name="model.6.cv2.0.m.2.cv2.conv.weight_compressed" type="Const" version="opset1">
			<data element_type="f16" shape="48, 48, 3, 3" offset="1517752" size="41472" />
			<output>
				<port id="0" precision="FP16">
					<dim>48</dim>
					<dim>48</dim>
					<dim>3</dim>
					<dim>3</dim>
				</port>
			</output>
		</layer>
		<layer id="286" name="model.6.cv2.0.m.2.cv2.conv.weight" type="Convert" version="opset1">
			<data destination_type="f32" />
			<rt_info>
				<attribute name="decompression" version="0" />
			</rt_info>
			<input>
				<port id="0" precision="FP16">
					<dim>48</dim>
					<dim>48</dim>
					<dim>3</dim>
					<dim>3</dim>
				</port>
			</input>
			<output>
				<port id="1" precision="FP32" names="model.6.cv2.0.m.2.cv2.conv.weight">
					<dim>48</dim>
					<dim>48</dim>
					<dim>3</dim>
					<dim>3</dim>
				</port>
			</output>
		</layer>
		<layer id="287" name="/model.6/cv2/cv2.0/m/m.2/cv2/conv/Conv/WithoutBiases" type="Convolution" version="opset1">
			<data strides="1, 1" dilations="1, 1" pads_begin="1, 1" pads_end="1, 1" auto_pad="explicit" />
			<input>
				<port id="0" precision="FP32">
					<dim>1</dim>
					<dim>48</dim>
					<dim>40</dim>
					<dim>40</dim>
				</port>
				<port id="1" precision="FP32">
					<dim>48</dim>
					<dim>48</dim>
					<dim>3</dim>
					<dim>3</dim>
				</port>
			</input>
			<output>
				<port id="2" precision="FP32">
					<dim>1</dim>
					<dim>48</dim>
					<dim>40</dim>
					<dim>40</dim>
				</port>
			</output>
		</layer>
		<layer id="288" name="Reshape_2393_compressed" type="Const" version="opset1">
			<data element_type="f16" shape="1, 48, 1, 1" offset="1559224" size="96" />
			<output>
				<port id="0" precision="FP16">
					<dim>1</dim>
					<dim>48</dim>
					<dim>1</dim>
					<dim>1</dim>
				</port>
			</output>
		</layer>
		<layer id="289" name="Reshape_2393" type="Convert" version="opset1">
			<data destination_type="f32" />
			<rt_info>
				<attribute name="decompression" version="0" />
			</rt_info>
			<input>
				<port id="0" precision="FP16">
					<dim>1</dim>
					<dim>48</dim>
					<dim>1</dim>
					<dim>1</dim>
				</port>
			</input>
			<output>
				<port id="1" precision="FP32">
					<dim>1</dim>
					<dim>48</dim>
					<dim>1</dim>
					<dim>1</dim>
				</port>
			</output>
		</layer>
		<layer id="290" name="/model.6/cv2/cv2.0/m/m.2/cv2/conv/Conv" type="Add" version="opset1">
			<data auto_broadcast="numpy" />
			<input>
				<port id="0" precision="FP32">
					<dim>1</dim>
					<dim>48</dim>
					<dim>40</dim>
					<dim>40</dim>
				</port>
				<port id="1" precision="FP32">
					<dim>1</dim>
					<dim>48</dim>
					<dim>1</dim>
					<dim>1</dim>
				</port>
			</input>
			<output>
				<port id="2" precision="FP32" names="/model.6/cv2/cv2.0/m/m.2/cv2/conv/Conv_output_0">
					<dim>1</dim>
					<dim>48</dim>
					<dim>40</dim>
					<dim>40</dim>
				</port>
			</output>
		</layer>
		<layer id="291" name="/model.6/cv2/cv2.0/m/m.2/cv2/act/Mul" type="Swish" version="opset4">
			<input>
				<port id="0" precision="FP32">
					<dim>1</dim>
					<dim>48</dim>
					<dim>40</dim>
					<dim>40</dim>
				</port>
			</input>
			<output>
				<port id="1" precision="FP32" names="/model.6/cv2/cv2.0/m/m.2/cv2/act/Mul_output_0">
					<dim>1</dim>
					<dim>48</dim>
					<dim>40</dim>
					<dim>40</dim>
				</port>
			</output>
		</layer>
		<layer id="292" name="/model.6/cv2/cv2.0/m/m.2/Add" type="Add" version="opset1">
			<data auto_broadcast="numpy" />
			<input>
				<port id="0" precision="FP32">
					<dim>1</dim>
					<dim>48</dim>
					<dim>40</dim>
					<dim>40</dim>
				</port>
				<port id="1" precision="FP32">
					<dim>1</dim>
					<dim>48</dim>
					<dim>40</dim>
					<dim>40</dim>
				</port>
			</input>
			<output>
				<port id="2" precision="FP32" names="/model.6/cv2/cv2.0/m/m.2/Add_output_0">
					<dim>1</dim>
					<dim>48</dim>
					<dim>40</dim>
					<dim>40</dim>
				</port>
			</output>
		</layer>
		<layer id="293" name="model.6.cv2.0.cv2.conv.weight_compressed" type="Const" version="opset1">
			<data element_type="f16" shape="48, 96, 1, 1" offset="1559320" size="9216" />
			<output>
				<port id="0" precision="FP16">
					<dim>48</dim>
					<dim>96</dim>
					<dim>1</dim>
					<dim>1</dim>
				</port>
			</output>
		</layer>
		<layer id="294" name="model.6.cv2.0.cv2.conv.weight" type="Convert" version="opset1">
			<data destination_type="f32" />
			<rt_info>
				<attribute name="decompression" version="0" />
			</rt_info>
			<input>
				<port id="0" precision="FP16">
					<dim>48</dim>
					<dim>96</dim>
					<dim>1</dim>
					<dim>1</dim>
				</port>
			</input>
			<output>
				<port id="1" precision="FP32" names="model.6.cv2.0.cv2.conv.weight">
					<dim>48</dim>
					<dim>96</dim>
					<dim>1</dim>
					<dim>1</dim>
				</port>
			</output>
		</layer>
		<layer id="295" name="/model.6/cv2/cv2.0/cv2/conv/Conv/WithoutBiases" type="Convolution" version="opset1">
			<data strides="1, 1" dilations="1, 1" pads_begin="0, 0" pads_end="0, 0" auto_pad="explicit" />
			<input>
				<port id="0" precision="FP32">
					<dim>1</dim>
					<dim>96</dim>
					<dim>40</dim>
					<dim>40</dim>
				</port>
				<port id="1" precision="FP32">
					<dim>48</dim>
					<dim>96</dim>
					<dim>1</dim>
					<dim>1</dim>
				</port>
			</input>
			<output>
				<port id="2" precision="FP32">
					<dim>1</dim>
					<dim>48</dim>
					<dim>40</dim>
					<dim>40</dim>
				</port>
			</output>
		</layer>
		<layer id="296" name="Reshape_2444_compressed" type="Const" version="opset1">
			<data element_type="f16" shape="1, 48, 1, 1" offset="1568536" size="96" />
			<output>
				<port id="0" precision="FP16">
					<dim>1</dim>
					<dim>48</dim>
					<dim>1</dim>
					<dim>1</dim>
				</port>
			</output>
		</layer>
		<layer id="297" name="Reshape_2444" type="Convert" version="opset1">
			<data destination_type="f32" />
			<rt_info>
				<attribute name="decompression" version="0" />
			</rt_info>
			<input>
				<port id="0" precision="FP16">
					<dim>1</dim>
					<dim>48</dim>
					<dim>1</dim>
					<dim>1</dim>
				</port>
			</input>
			<output>
				<port id="1" precision="FP32">
					<dim>1</dim>
					<dim>48</dim>
					<dim>1</dim>
					<dim>1</dim>
				</port>
			</output>
		</layer>
		<layer id="298" name="/model.6/cv2/cv2.0/cv2/conv/Conv" type="Add" version="opset1">
			<data auto_broadcast="numpy" />
			<input>
				<port id="0" precision="FP32">
					<dim>1</dim>
					<dim>48</dim>
					<dim>40</dim>
					<dim>40</dim>
				</port>
				<port id="1" precision="FP32">
					<dim>1</dim>
					<dim>48</dim>
					<dim>1</dim>
					<dim>1</dim>
				</port>
			</input>
			<output>
				<port id="2" precision="FP32" names="/model.6/cv2/cv2.0/cv2/conv/Conv_output_0">
					<dim>1</dim>
					<dim>48</dim>
					<dim>40</dim>
					<dim>40</dim>
				</port>
			</output>
		</layer>
		<layer id="299" name="/model.6/cv2/cv2.0/cv2/act/Mul" type="Swish" version="opset4">
			<input>
				<port id="0" precision="FP32">
					<dim>1</dim>
					<dim>48</dim>
					<dim>40</dim>
					<dim>40</dim>
				</port>
			</input>
			<output>
				<port id="1" precision="FP32" names="/model.6/cv2/cv2.0/cv2/act/Mul_output_0">
					<dim>1</dim>
					<dim>48</dim>
					<dim>40</dim>
					<dim>40</dim>
				</port>
			</output>
		</layer>
		<layer id="300" name="/model.6/cv2/cv2.0/Concat" type="Concat" version="opset1">
			<data axis="1" />
			<input>
				<port id="0" precision="FP32">
					<dim>1</dim>
					<dim>48</dim>
					<dim>40</dim>
					<dim>40</dim>
				</port>
				<port id="1" precision="FP32">
					<dim>1</dim>
					<dim>48</dim>
					<dim>40</dim>
					<dim>40</dim>
				</port>
			</input>
			<output>
				<port id="2" precision="FP32" names="/model.6/cv2/cv2.0/Concat_output_0">
					<dim>1</dim>
					<dim>96</dim>
					<dim>40</dim>
					<dim>40</dim>
				</port>
			</output>
		</layer>
		<layer id="301" name="model.6.cv2.0.cv3.conv.weight_compressed" type="Const" version="opset1">
			<data element_type="f16" shape="96, 96, 1, 1" offset="1568632" size="18432" />
			<output>
				<port id="0" precision="FP16">
					<dim>96</dim>
					<dim>96</dim>
					<dim>1</dim>
					<dim>1</dim>
				</port>
			</output>
		</layer>
		<layer id="302" name="model.6.cv2.0.cv3.conv.weight" type="Convert" version="opset1">
			<data destination_type="f32" />
			<rt_info>
				<attribute name="decompression" version="0" />
			</rt_info>
			<input>
				<port id="0" precision="FP16">
					<dim>96</dim>
					<dim>96</dim>
					<dim>1</dim>
					<dim>1</dim>
				</port>
			</input>
			<output>
				<port id="1" precision="FP32" names="model.6.cv2.0.cv3.conv.weight">
					<dim>96</dim>
					<dim>96</dim>
					<dim>1</dim>
					<dim>1</dim>
				</port>
			</output>
		</layer>
		<layer id="303" name="/model.6/cv2/cv2.0/cv3/conv/Conv/WithoutBiases" type="Convolution" version="opset1">
			<data strides="1, 1" dilations="1, 1" pads_begin="0, 0" pads_end="0, 0" auto_pad="explicit" />
			<input>
				<port id="0" precision="FP32">
					<dim>1</dim>
					<dim>96</dim>
					<dim>40</dim>
					<dim>40</dim>
				</port>
				<port id="1" precision="FP32">
					<dim>96</dim>
					<dim>96</dim>
					<dim>1</dim>
					<dim>1</dim>
				</port>
			</input>
			<output>
				<port id="2" precision="FP32">
					<dim>1</dim>
					<dim>96</dim>
					<dim>40</dim>
					<dim>40</dim>
				</port>
			</output>
		</layer>
		<layer id="304" name="Reshape_2495_compressed" type="Const" version="opset1">
			<data element_type="f16" shape="1, 96, 1, 1" offset="1587064" size="192" />
			<output>
				<port id="0" precision="FP16">
					<dim>1</dim>
					<dim>96</dim>
					<dim>1</dim>
					<dim>1</dim>
				</port>
			</output>
		</layer>
		<layer id="305" name="Reshape_2495" type="Convert" version="opset1">
			<data destination_type="f32" />
			<rt_info>
				<attribute name="decompression" version="0" />
			</rt_info>
			<input>
				<port id="0" precision="FP16">
					<dim>1</dim>
					<dim>96</dim>
					<dim>1</dim>
					<dim>1</dim>
				</port>
			</input>
			<output>
				<port id="1" precision="FP32">
					<dim>1</dim>
					<dim>96</dim>
					<dim>1</dim>
					<dim>1</dim>
				</port>
			</output>
		</layer>
		<layer id="306" name="/model.6/cv2/cv2.0/cv3/conv/Conv" type="Add" version="opset1">
			<data auto_broadcast="numpy" />
			<input>
				<port id="0" precision="FP32">
					<dim>1</dim>
					<dim>96</dim>
					<dim>40</dim>
					<dim>40</dim>
				</port>
				<port id="1" precision="FP32">
					<dim>1</dim>
					<dim>96</dim>
					<dim>1</dim>
					<dim>1</dim>
				</port>
			</input>
			<output>
				<port id="2" precision="FP32" names="/model.6/cv2/cv2.0/cv3/conv/Conv_output_0">
					<dim>1</dim>
					<dim>96</dim>
					<dim>40</dim>
					<dim>40</dim>
				</port>
			</output>
		</layer>
		<layer id="307" name="/model.6/cv2/cv2.0/cv3/act/Mul" type="Swish" version="opset4">
			<input>
				<port id="0" precision="FP32">
					<dim>1</dim>
					<dim>96</dim>
					<dim>40</dim>
					<dim>40</dim>
				</port>
			</input>
			<output>
				<port id="1" precision="FP32" names="/model.6/cv2/cv2.0/cv3/act/Mul_output_0">
					<dim>1</dim>
					<dim>96</dim>
					<dim>40</dim>
					<dim>40</dim>
				</port>
			</output>
		</layer>
		<layer id="308" name="model.6.cv2.1.conv.weight_compressed" type="Const" version="opset1">
			<data element_type="f16" shape="96, 96, 3, 3" offset="1587256" size="165888" />
			<output>
				<port id="0" precision="FP16">
					<dim>96</dim>
					<dim>96</dim>
					<dim>3</dim>
					<dim>3</dim>
				</port>
			</output>
		</layer>
		<layer id="309" name="model.6.cv2.1.conv.weight" type="Convert" version="opset1">
			<data destination_type="f32" />
			<rt_info>
				<attribute name="decompression" version="0" />
			</rt_info>
			<input>
				<port id="0" precision="FP16">
					<dim>96</dim>
					<dim>96</dim>
					<dim>3</dim>
					<dim>3</dim>
				</port>
			</input>
			<output>
				<port id="1" precision="FP32" names="model.6.cv2.1.conv.weight">
					<dim>96</dim>
					<dim>96</dim>
					<dim>3</dim>
					<dim>3</dim>
				</port>
			</output>
		</layer>
		<layer id="310" name="/model.6/cv2/cv2.1/conv/Conv/WithoutBiases" type="Convolution" version="opset1">
			<data strides="1, 1" dilations="1, 1" pads_begin="1, 1" pads_end="1, 1" auto_pad="explicit" />
			<input>
				<port id="0" precision="FP32">
					<dim>1</dim>
					<dim>96</dim>
					<dim>40</dim>
					<dim>40</dim>
				</port>
				<port id="1" precision="FP32">
					<dim>96</dim>
					<dim>96</dim>
					<dim>3</dim>
					<dim>3</dim>
				</port>
			</input>
			<output>
				<port id="2" precision="FP32">
					<dim>1</dim>
					<dim>96</dim>
					<dim>40</dim>
					<dim>40</dim>
				</port>
			</output>
		</layer>
		<layer id="311" name="Reshape_2545_compressed" type="Const" version="opset1">
			<data element_type="f16" shape="1, 96, 1, 1" offset="1753144" size="192" />
			<output>
				<port id="0" precision="FP16">
					<dim>1</dim>
					<dim>96</dim>
					<dim>1</dim>
					<dim>1</dim>
				</port>
			</output>
		</layer>
		<layer id="312" name="Reshape_2545" type="Convert" version="opset1">
			<data destination_type="f32" />
			<rt_info>
				<attribute name="decompression" version="0" />
			</rt_info>
			<input>
				<port id="0" precision="FP16">
					<dim>1</dim>
					<dim>96</dim>
					<dim>1</dim>
					<dim>1</dim>
				</port>
			</input>
			<output>
				<port id="1" precision="FP32">
					<dim>1</dim>
					<dim>96</dim>
					<dim>1</dim>
					<dim>1</dim>
				</port>
			</output>
		</layer>
…
		<edge from-layer="1364" from-port="0" to-layer="1365" to-port="0" />
		<edge from-layer="1365" from-port="1" to-layer="1366" to-port="1" />
		<edge from-layer="1366" from-port="2" to-layer="1369" to-port="0" />
		<edge from-layer="1367" from-port="0" to-layer="1368" to-port="0" />
		<edge from-layer="1368" from-port="1" to-layer="1369" to-port="1" />
		<edge from-layer="1369" from-port="2" to-layer="1370" to-port="0" />
		<edge from-layer="1370" from-port="1" to-layer="1373" to-port="0" />
		<edge from-layer="1370" from-port="1" to-layer="1393" to-port="0" />
		<edge from-layer="1371" from-port="0" to-layer="1372" to-port="0" />
		<edge from-layer="1372" from-port="1" to-layer="1373" to-port="1" />
		<edge from-layer="1373" from-port="2" to-layer="1376" to-port="0" />
		<edge from-layer="1374" from-port="0" to-layer="1375" to-port="0" />
		<edge from-layer="1375" from-port="1" to-layer="1376" to-port="1" />
		<edge from-layer="1376" from-port="2" to-layer="1377" to-port="0" />
		<edge from-layer="1377" from-port="1" to-layer="1380" to-port="0" />
		<edge from-layer="1378" from-port="0" to-layer="1379" to-port="0" />
		<edge from-layer="1379" from-port="1" to-layer="1380" to-port="1" />
		<edge from-layer="1380" from-port="2" to-layer="1383" to-port="0" />
		<edge from-layer="1381" from-port="0" to-layer="1382" to-port="0" />
		<edge from-layer="1382" from-port="1" to-layer="1383" to-port="1" />
		<edge from-layer="1383" from-port="2" to-layer="1384" to-port="0" />
		<edge from-layer="1384" from-port="1" to-layer="1387" to-port="0" />
		<edge from-layer="1385" from-port="0" to-layer="1386" to-port="0" />
		<edge from-layer="1386" from-port="1" to-layer="1387" to-port="1" />
		<edge from-layer="1387" from-port="2" to-layer="1390" to-port="0" />
		<edge from-layer="1388" from-port="0" to-layer="1389" to-port="0" />
		<edge from-layer="1389" from-port="1" to-layer="1390" to-port="1" />
		<edge from-layer="1390" from-port="2" to-layer="1411" to-port="0" />
		<edge from-layer="1391" from-port="0" to-layer="1392" to-port="0" />
		<edge from-layer="1392" from-port="1" to-layer="1393" to-port="1" />
		<edge from-layer="1393" from-port="2" to-layer="1396" to-port="0" />
		<edge from-layer="1394" from-port="0" to-layer="1395" to-port="0" />
		<edge from-layer="1395" from-port="1" to-layer="1396" to-port="1" />
		<edge from-layer="1396" from-port="2" to-layer="1397" to-port="0" />
		<edge from-layer="1397" from-port="1" to-layer="1400" to-port="0" />
		<edge from-layer="1398" from-port="0" to-layer="1399" to-port="0" />
		<edge from-layer="1399" from-port="1" to-layer="1400" to-port="1" />
		<edge from-layer="1400" from-port="2" to-layer="1403" to-port="0" />
		<edge from-layer="1401" from-port="0" to-layer="1402" to-port="0" />
		<edge from-layer="1402" from-port="1" to-layer="1403" to-port="1" />
		<edge from-layer="1403" from-port="2" to-layer="1404" to-port="0" />
		<edge from-layer="1404" from-port="1" to-layer="1407" to-port="0" />
		<edge from-layer="1405" from-port="0" to-layer="1406" to-port="0" />
		<edge from-layer="1406" from-port="1" to-layer="1407" to-port="1" />
		<edge from-layer="1407" from-port="2" to-layer="1410" to-port="0" />
		<edge from-layer="1408" from-port="0" to-layer="1409" to-port="0" />
		<edge from-layer="1409" from-port="1" to-layer="1410" to-port="1" />
		<edge from-layer="1410" from-port="2" to-layer="1411" to-port="1" />
		<edge from-layer="1411" from-port="2" to-layer="1413" to-port="0" />
		<edge from-layer="1412" from-port="0" to-layer="1413" to-port="1" />
		<edge from-layer="1413" from-port="2" to-layer="1414" to-port="2" />
		<edge from-layer="1414" from-port="3" to-layer="1417" to-port="0" />
		<edge from-layer="1415" from-port="0" to-layer="1417" to-port="1" />
		<edge from-layer="1416" from-port="0" to-layer="1417" to-port="2" />
		<edge from-layer="1417" from-port="3" to-layer="1419" to-port="0" />
		<edge from-layer="1417" from-port="4" to-layer="1457" to-port="0" />
		<edge from-layer="1418" from-port="0" to-layer="1419" to-port="1" />
		<edge from-layer="1419" from-port="2" to-layer="1421" to-port="0" />
		<edge from-layer="1420" from-port="0" to-layer="1421" to-port="1" />
		<edge from-layer="1421" from-port="2" to-layer="1422" to-port="0" />
		<edge from-layer="1421" from-port="2" to-layer="1431" to-port="0" />
		<edge from-layer="1422" from-port="1" to-layer="1426" to-port="0" />
		<edge from-layer="1422" from-port="1" to-layer="1433" to-port="1" />
		<edge from-layer="1423" from-port="0" to-layer="1426" to-port="1" />
		<edge from-layer="1424" from-port="0" to-layer="1426" to-port="2" />
		<edge from-layer="1425" from-port="0" to-layer="1426" to-port="3" />
		<edge from-layer="1426" from-port="4" to-layer="1428" to-port="0" />
		<edge from-layer="1427" from-port="0" to-layer="1428" to-port="1" />
		<edge from-layer="1428" from-port="2" to-layer="1430" to-port="0" />
		<edge from-layer="1429" from-port="0" to-layer="1430" to-port="1" />
		<edge from-layer="1430" from-port="2" to-layer="1431" to-port="1" />
		<edge from-layer="1431" from-port="2" to-layer="1432" to-port="0" />
		<edge from-layer="1432" from-port="1" to-layer="1433" to-port="0" />
		<edge from-layer="1433" from-port="2" to-layer="1435" to-port="0" />
		<edge from-layer="1434" from-port="0" to-layer="1435" to-port="1" />
		<edge from-layer="1435" from-port="2" to-layer="1438" to-port="0" />
		<edge from-layer="1436" from-port="0" to-layer="1437" to-port="0" />
		<edge from-layer="1437" from-port="1" to-layer="1977" to-port="1" />
		<edge from-layer="1437" from-port="1" to-layer="1438" to-port="1" />
		<edge from-layer="1438" from-port="2" to-layer="1440" to-port="0" />
		<edge from-layer="1439" from-port="0" to-layer="1440" to-port="1" />
		<edge from-layer="1440" from-port="2" to-layer="1443" to-port="0" />
		<edge from-layer="1441" from-port="0" to-layer="1443" to-port="1" />
		<edge from-layer="1442" from-port="0" to-layer="1443" to-port="2" />
		<edge from-layer="1443" from-port="3" to-layer="1444" to-port="1" />
		<edge from-layer="1443" from-port="4" to-layer="1447" to-port="1" />
		<edge from-layer="1444" from-port="2" to-layer="1448" to-port="0" />
		<edge from-layer="1444" from-port="2" to-layer="1452" to-port="1" />
		<edge from-layer="1445" from-port="0" to-layer="1446" to-port="0" />
		<edge from-layer="1446" from-port="1" to-layer="1447" to-port="0" />
		<edge from-layer="1447" from-port="2" to-layer="1448" to-port="1" />
		<edge from-layer="1447" from-port="2" to-layer="1452" to-port="0" />
		<edge from-layer="1448" from-port="2" to-layer="1451" to-port="0" />
		<edge from-layer="1449" from-port="0" to-layer="1450" to-port="0" />
		<edge from-layer="1450" from-port="1" to-layer="1451" to-port="1" />
		<edge from-layer="1451" from-port="2" to-layer="1453" to-port="0" />
		<edge from-layer="1452" from-port="2" to-layer="1453" to-port="1" />
		<edge from-layer="1453" from-port="2" to-layer="1456" to-port="0" />
		<edge from-layer="1454" from-port="0" to-layer="1455" to-port="0" />
		<edge from-layer="1455" from-port="1" to-layer="1456" to-port="1" />
		<edge from-layer="1456" from-port="2" to-layer="1458" to-port="0" />
		<edge from-layer="1457" from-port="1" to-layer="1458" to-port="1" />
		<edge from-layer="1458" from-port="2" to-layer="1459" to-port="0" />
		<edge from-layer="1460" from-port="0" to-layer="1461" to-port="0" />
		<edge from-layer="1461" from-port="1" to-layer="1983" to-port="0" />
		<edge from-layer="1462" from-port="0" to-layer="1463" to-port="0" />
		<edge from-layer="1463" from-port="1" to-layer="1464" to-port="1" />
		<edge from-layer="1464" from-port="2" to-layer="1467" to-port="0" />
		<edge from-layer="1465" from-port="0" to-layer="1466" to-port="0" />
		<edge from-layer="1466" from-port="1" to-layer="1467" to-port="1" />
		<edge from-layer="1467" from-port="2" to-layer="1468" to-port="0" />
		<edge from-layer="1468" from-port="1" to-layer="1472" to-port="0" />
		<edge from-layer="1468" from-port="1" to-layer="1469" to-port="0" />
		<edge from-layer="1469" from-port="1" to-layer="1470" to-port="0" />
		<edge from-layer="1469" from-port="1" to-layer="1472" to-port="1" />
		<edge from-layer="1470" from-port="1" to-layer="1471" to-port="0" />
		<edge from-layer="1470" from-port="1" to-layer="1472" to-port="2" />
		<edge from-layer="1471" from-port="1" to-layer="1472" to-port="3" />
		<edge from-layer="1472" from-port="4" to-layer="1475" to-port="0" />
		<edge from-layer="1473" from-port="0" to-layer="1474" to-port="0" />
		<edge from-layer="1474" from-port="1" to-layer="1475" to-port="1" />
		<edge from-layer="1475" from-port="2" to-layer="1478" to-port="0" />
		<edge from-layer="1476" from-port="0" to-layer="1477" to-port="0" />
		<edge from-layer="1477" from-port="1" to-layer="1478" to-port="1" />
		<edge from-layer="1478" from-port="2" to-layer="1479" to-port="0" />
		<edge from-layer="1479" from-port="1" to-layer="1480" to-port="0" />
		<edge from-layer="1479" from-port="1" to-layer="1485" to-port="0" />
		<edge from-layer="1479" from-port="1" to-layer="1914" to-port="0" />
		<edge from-layer="1479" from-port="1" to-layer="1934" to-port="0" />
		<edge from-layer="1480" from-port="1" to-layer="1481" to-port="0" />
		<edge from-layer="1481" from-port="1" to-layer="1483" to-port="0" />
		<edge from-layer="1482" from-port="0" to-layer="1483" to-port="1" />
		<edge from-layer="1482" from-port="0" to-layer="1485" to-port="2" />
		<edge from-layer="1483" from-port="2" to-layer="1484" to-port="0" />
		<edge from-layer="1484" from-port="1" to-layer="1485" to-port="1" />
		<edge from-layer="1485" from-port="3" to-layer="1486" to-port="0" />
		<edge from-layer="1486" from-port="2" to-layer="1489" to-port="0" />
		<edge from-layer="1487" from-port="0" to-layer="1488" to-port="0" />
		<edge from-layer="1488" from-port="1" to-layer="1489" to-port="1" />
		<edge from-layer="1489" from-port="2" to-layer="1492" to-port="0" />
		<edge from-layer="1490" from-port="0" to-layer="1491" to-port="0" />
		<edge from-layer="1491" from-port="1" to-layer="1492" to-port="1" />
		<edge from-layer="1492" from-port="2" to-layer="1493" to-port="0" />
		<edge from-layer="1493" from-port="1" to-layer="1496" to-port="0" />
		<edge from-layer="1494" from-port="0" to-layer="1496" to-port="1" />
		<edge from-layer="1495" from-port="0" to-layer="1496" to-port="2" />
		<edge from-layer="1496" from-port="4" to-layer="1499" to-port="0" />
		<edge from-layer="1496" from-port="4" to-layer="1645" to-port="1" />
		<edge from-layer="1496" from-port="3" to-layer="1645" to-port="0" />
		<edge from-layer="1496" from-port="4" to-layer="1551" to-port="0" />
		<edge from-layer="1497" from-port="0" to-layer="1498" to-port="0" />
		<edge from-layer="1498" from-port="1" to-layer="1499" to-port="1" />
		<edge from-layer="1499" from-port="2" to-layer="1502" to-port="0" />
		<edge from-layer="1500" from-port="0" to-layer="1501" to-port="0" />
		<edge from-layer="1501" from-port="1" to-layer="1502" to-port="1" />
		<edge from-layer="1502" from-port="2" to-layer="1503" to-port="0" />
		<edge from-layer="1503" from-port="1" to-layer="1506" to-port="0" />
		<edge from-layer="1503" from-port="1" to-layer="1518" to-port="0" />
		<edge from-layer="1504" from-port="0" to-layer="1505" to-port="0" />
		<edge from-layer="1505" from-port="1" to-layer="1506" to-port="1" />
		<edge from-layer="1506" from-port="2" to-layer="1509" to-port="0" />
		<edge from-layer="1507" from-port="0" to-layer="1508" to-port="0" />
		<edge from-layer="1508" from-port="1" to-layer="1509" to-port="1" />
		<edge from-layer="1509" from-port="2" to-layer="1510" to-port="0" />
		<edge from-layer="1510" from-port="1" to-layer="1513" to-port="0" />
		<edge from-layer="1511" from-port="0" to-layer="1512" to-port="0" />
		<edge from-layer="1512" from-port="1" to-layer="1513" to-port="1" />
		<edge from-layer="1513" from-port="2" to-layer="1516" to-port="0" />
		<edge from-layer="1514" from-port="0" to-layer="1515" to-port="0" />
		<edge from-layer="1515" from-port="1" to-layer="1516" to-port="1" />
		<edge from-layer="1516" from-port="2" to-layer="1517" to-port="0" />
		<edge from-layer="1517" from-port="1" to-layer="1518" to-port="1" />
		<edge from-layer="1518" from-port="2" to-layer="1521" to-port="0" />
		<edge from-layer="1518" from-port="2" to-layer="1533" to-port="0" />
		<edge from-layer="1519" from-port="0" to-layer="1520" to-port="0" />
		<edge from-layer="1520" from-port="1" to-layer="1521" to-port="1" />
		<edge from-layer="1521" from-port="2" to-layer="1524" to-port="0" />
		<edge from-layer="1522" from-port="0" to-layer="1523" to-port="0" />
		<edge from-layer="1523" from-port="1" to-layer="1524" to-port="1" />
		<edge from-layer="1524" from-port="2" to-layer="1525" to-port="0" />
		<edge from-layer="1525" from-port="1" to-layer="1528" to-port="0" />
		<edge from-layer="1526" from-port="0" to-layer="1527" to-port="0" />
		<edge from-layer="1527" from-port="1" to-layer="1528" to-port="1" />
		<edge from-layer="1528" from-port="2" to-layer="1531" to-port="0" />
		<edge from-layer="1529" from-port="0" to-layer="1530" to-port="0" />
		<edge from-layer="1530" from-port="1" to-layer="1531" to-port="1" />
		<edge from-layer="1531" from-port="2" to-layer="1532" to-port="0" />
		<edge from-layer="1532" from-port="1" to-layer="1533" to-port="1" />
		<edge from-layer="1533" from-port="2" to-layer="1536" to-port="0" />
		<edge from-layer="1533" from-port="2" to-layer="1548" to-port="0" />
		<edge from-layer="1534" from-port="0" to-layer="1535" to-port="0" />
		<edge from-layer="1535" from-port="1" to-layer="1536" to-port="1" />
		<edge from-layer="1536" from-port="2" to-layer="1539" to-port="0" />
		<edge from-layer="1537" from-port="0" to-layer="1538" to-port="0" />
		<edge from-layer="1538" from-port="1" to-layer="1539" to-port="1" />
		<edge from-layer="1539" from-port="2" to-layer="1540" to-port="0" />
		<edge from-layer="1540" from-port="1" to-layer="1543" to-port="0" />
		<edge from-layer="1541" from-port="0" to-layer="1542" to-port="0" />
		<edge from-layer="1542" from-port="1" to-layer="1543" to-port="1" />
		<edge from-layer="1543" from-port="2" to-layer="1546" to-port="0" />
		<edge from-layer="1544" from-port="0" to-layer="1545" to-port="0" />
		<edge from-layer="1545" from-port="1" to-layer="1546" to-port="1" />
		<edge from-layer="1546" from-port="2" to-layer="1547" to-port="0" />
		<edge from-layer="1547" from-port="1" to-layer="1548" to-port="1" />
		<edge from-layer="1548" from-port="2" to-layer="1556" to-port="0" />
		<edge from-layer="1549" from-port="0" to-layer="1550" to-port="0" />
		<edge from-layer="1550" from-port="1" to-layer="1551" to-port="1" />
		<edge from-layer="1551" from-port="2" to-layer="1554" to-port="0" />
		<edge from-layer="1552" from-port="0" to-layer="1553" to-port="0" />
		<edge from-layer="1553" from-port="1" to-layer="1554" to-port="1" />
		<edge from-layer="1554" from-port="2" to-layer="1555" to-port="0" />
		<edge from-layer="1555" from-port="1" to-layer="1556" to-port="1" />
		<edge from-layer="1556" from-port="2" to-layer="1559" to-port="0" />
		<edge from-layer="1557" from-port="0" to-layer="1558" to-port="0" />
		<edge from-layer="1558" from-port="1" to-layer="1559" to-port="1" />
		<edge from-layer="1559" from-port="2" to-layer="1562" to-port="0" />
		<edge from-layer="1560" from-port="0" to-layer="1561" to-port="0" />
		<edge from-layer="1561" from-port="1" to-layer="1562" to-port="1" />
		<edge from-layer="1562" from-port="2" to-layer="1563" to-port="0" />
		<edge from-layer="1563" from-port="1" to-layer="1566" to-port="0" />
		<edge from-layer="1564" from-port="0" to-layer="1565" to-port="0" />
		<edge from-layer="1565" from-port="1" to-layer="1566" to-port="1" />
		<edge from-layer="1566" from-port="2" to-layer="1569" to-port="0" />
		<edge from-layer="1567" from-port="0" to-layer="1568" to-port="0" />
		<edge from-layer="1568" from-port="1" to-layer="1569" to-port="1" />
		<edge from-layer="1569" from-port="2" to-layer="1570" to-port="0" />
		<edge from-layer="1570" from-port="1" to-layer="1573" to-port="0" />
		<edge from-layer="1570" from-port="1" to-layer="1645" to-port="2" />
		<edge from-layer="1570" from-port="1" to-layer="1625" to-port="0" />
		<edge from-layer="1571" from-port="0" to-layer="1572" to-port="0" />
		<edge from-layer="1572" from-port="1" to-layer="1573" to-port="1" />
		<edge from-layer="1573" from-port="2" to-layer="1576" to-port="0" />
		<edge from-layer="1574" from-port="0" to-layer="1575" to-port="0" />
		<edge from-layer="1575" from-port="1" to-layer="1576" to-port="1" />
		<edge from-layer="1576" from-port="2" to-layer="1577" to-port="0" />
		<edge from-layer="1577" from-port="1" to-layer="1580" to-port="0" />
		<edge from-layer="1577" from-port="1" to-layer="1592" to-port="0" />
		<edge from-layer="1578" from-port="0" to-layer="1579" to-port="0" />
		<edge from-layer="1579" from-port="1" to-layer="1580" to-port="1" />
		<edge from-layer="1580" from-port="2" to-layer="1583" to-port="0" />
		<edge from-layer="1581" from-port="0" to-layer="1582" to-port="0" />
		<edge from-layer="1582" from-port="1" to-layer="1583" to-port="1" />
		<edge from-layer="1583" from-port="2" to-layer="1584" to-port="0" />
		<edge from-layer="1584" from-port="1" to-layer="1587" to-port="0" />
		<edge from-layer="1585" from-port="0" to-layer="1586" to-port="0" />
		<edge from-layer="1586" from-port="1" to-layer="1587" to-port="1" />
		<edge from-layer="1587" from-port="2" to-layer="1590" to-port="0" />
		<edge from-layer="1588" from-port="0" to-layer="1589" to-port="0" />
		<edge from-layer="1589" from-port="1" to-layer="1590" to-port="1" />
		<edge from-layer="1590" from-port="2" to-layer="1591" to-port="0" />
		<edge from-layer="1591" from-port="1" to-layer="1592" to-port="1" />
		<edge from-layer="1592" from-port="2" to-layer="1595" to-port="0" />
		<edge from-layer="1592" from-port="2" to-layer="1607" to-port="0" />
		<edge from-layer="1593" from-port="0" to-layer="1594" to-port="0" />
		<edge from-layer="1594" from-port="1" to-layer="1595" to-port="1" />
		<edge from-layer="1595" from-port="2" to-layer="1598" to-port="0" />
		<edge from-layer="1596" from-port="0" to-layer="1597" to-port="0" />
		<edge from-layer="1597" from-port="1" to-layer="1598" to-port="1" />
		<edge from-layer="1598" from-port="2" to-layer="1599" to-port="0" />
		<edge from-layer="1599" from-port="1" to-layer="1602" to-port="0" />
		<edge from-layer="1600" from-port="0" to-layer="1601" to-port="0" />
		<edge from-layer="1601" from-port="1" to-layer="1602" to-port="1" />
		<edge from-layer="1602" from-port="2" to-layer="1605" to-port="0" />
		<edge from-layer="1603" from-port="0" to-layer="1604" to-port="0" />
		<edge from-layer="1604" from-port="1" to-layer="1605" to-port="1" />
		<edge from-layer="1605" from-port="2" to-layer="1606" to-port="0" />
		<edge from-layer="1606" from-port="1" to-layer="1607" to-port="1" />
		<edge from-layer="1607" from-port="2" to-layer="1610" to-port="0" />
		<edge from-layer="1607" from-port="2" to-layer="1622" to-port="0" />
		<edge from-layer="1608" from-port="0" to-layer="1609" to-port="0" />
		<edge from-layer="1609" from-port="1" to-layer="1610" to-port="1" />
		<edge from-layer="1610" from-port="2" to-layer="1613" to-port="0" />
		<edge from-layer="1611" from-port="0" to-layer="1612" to-port="0" />
		<edge from-layer="1612" from-port="1" to-layer="1613" to-port="1" />
		<edge from-layer="1613" from-port="2" to-layer="1614" to-port="0" />
		<edge from-layer="1614" from-port="1" to-layer="1617" to-port="0" />
		<edge from-layer="1615" from-port="0" to-layer="1616" to-port="0" />
		<edge from-layer="1616" from-port="1" to-layer="1617" to-port="1" />
		<edge from-layer="1617" from-port="2" to-layer="1620" to-port="0" />
		<edge from-layer="1618" from-port="0" to-layer="1619" to-port="0" />
		<edge from-layer="1619" from-port="1" to-layer="1620" to-port="1" />
		<edge from-layer="1620" from-port="2" to-layer="1621" to-port="0" />
		<edge from-layer="1621" from-port="1" to-layer="1622" to-port="1" />
		<edge from-layer="1622" from-port="2" to-layer="1630" to-port="0" />
		<edge from-layer="1623" from-port="0" to-layer="1624" to-port="0" />
		<edge from-layer="1624" from-port="1" to-layer="1625" to-port="1" />
		<edge from-layer="1625" from-port="2" to-layer="1628" to-port="0" />
		<edge from-layer="1626" from-port="0" to-layer="1627" to-port="0" />
		<edge from-layer="1627" from-port="1" to-layer="1628" to-port="1" />
		<edge from-layer="1628" from-port="2" to-layer="1629" to-port="0" />
		<edge from-layer="1629" from-port="1" to-layer="1630" to-port="1" />
		<edge from-layer="1630" from-port="2" to-layer="1633" to-port="0" />
		<edge from-layer="1631" from-port="0" to-layer="1632" to-port="0" />
		<edge from-layer="1632" from-port="1" to-layer="1633" to-port="1" />
		<edge from-layer="1633" from-port="2" to-layer="1636" to-port="0" />
		<edge from-layer="1634" from-port="0" to-layer="1635" to-port="0" />
		<edge from-layer="1635" from-port="1" to-layer="1636" to-port="1" />
		<edge from-layer="1636" from-port="2" to-layer="1637" to-port="0" />
		<edge from-layer="1637" from-port="1" to-layer="1640" to-port="0" />
		<edge from-layer="1638" from-port="0" to-layer="1639" to-port="0" />
		<edge from-layer="1639" from-port="1" to-layer="1640" to-port="1" />
		<edge from-layer="1640" from-port="2" to-layer="1643" to-port="0" />
		<edge from-layer="1641" from-port="0" to-layer="1642" to-port="0" />
		<edge from-layer="1642" from-port="1" to-layer="1643" to-port="1" />
		<edge from-layer="1643" from-port="2" to-layer="1644" to-port="0" />
		<edge from-layer="1644" from-port="1" to-layer="1645" to-port="3" />
		<edge from-layer="1645" from-port="4" to-layer="1648" to-port="0" />
		<edge from-layer="1646" from-port="0" to-layer="1647" to-port="0" />
		<edge from-layer="1647" from-port="1" to-layer="1648" to-port="1" />
		<edge from-layer="1648" from-port="2" to-layer="1651" to-port="0" />
		<edge from-layer="1649" from-port="0" to-layer="1650" to-port="0" />
		<edge from-layer="1650" from-port="1" to-layer="1651" to-port="1" />
		<edge from-layer="1651" from-port="2" to-layer="1652" to-port="0" />
		<edge from-layer="1652" from-port="1" to-layer="1653" to-port="0" />
		<edge from-layer="1652" from-port="1" to-layer="1658" to-port="0" />
		<edge from-layer="1652" from-port="1" to-layer="1891" to-port="0" />
		<edge from-layer="1652" from-port="1" to-layer="1871" to-port="0" />
		<edge from-layer="1653" from-port="1" to-layer="1654" to-port="0" />
		<edge from-layer="1654" from-port="1" to-layer="1656" to-port="0" />
		<edge from-layer="1655" from-port="0" to-layer="1656" to-port="1" />
		<edge from-layer="1655" from-port="0" to-layer="1658" to-port="2" />
		<edge from-layer="1656" from-port="2" to-layer="1657" to-port="0" />
		<edge from-layer="1657" from-port="1" to-layer="1658" to-port="1" />
		<edge from-layer="1658" from-port="3" to-layer="1659" to-port="0" />
		<edge from-layer="1659" from-port="2" to-layer="1662" to-port="0" />
		<edge from-layer="1660" from-port="0" to-layer="1661" to-port="0" />
		<edge from-layer="1661" from-port="1" to-layer="1662" to-port="1" />
		<edge from-layer="1662" from-port="2" to-layer="1665" to-port="0" />
		<edge from-layer="1663" from-port="0" to-layer="1664" to-port="0" />
		<edge from-layer="1664" from-port="1" to-layer="1665" to-port="1" />
		<edge from-layer="1665" from-port="2" to-layer="1666" to-port="0" />
		<edge from-layer="1666" from-port="1" to-layer="1669" to-port="0" />
		<edge from-layer="1667" from-port="0" to-layer="1669" to-port="1" />
		<edge from-layer="1668" from-port="0" to-layer="1669" to-port="2" />
		<edge from-layer="1669" from-port="4" to-layer="1724" to-port="0" />
		<edge from-layer="1669" from-port="4" to-layer="1672" to-port="0" />
		<edge from-layer="1669" from-port="4" to-layer="1818" to-port="1" />
		<edge from-layer="1669" from-port="3" to-layer="1818" to-port="0" />
		<edge from-layer="1670" from-port="0" to-layer="1671" to-port="0" />
		<edge from-layer="1671" from-port="1" to-layer="1672" to-port="1" />
		<edge from-layer="1672" from-port="2" to-layer="1675" to-port="0" />
		<edge from-layer="1673" from-port="0" to-layer="1674" to-port="0" />
		<edge from-layer="1674" from-port="1" to-layer="1675" to-port="1" />
		<edge from-layer="1675" from-port="2" to-layer="1676" to-port="0" />
		<edge from-layer="1676" from-port="1" to-layer="1679" to-port="0" />
		<edge from-layer="1676" from-port="1" to-layer="1691" to-port="0" />
		<edge from-layer="1677" from-port="0" to-layer="1678" to-port="0" />
		<edge from-layer="1678" from-port="1" to-layer="1679" to-port="1" />
		<edge from-layer="1679" from-port="2" to-layer="1682" to-port="0" />
		<edge from-layer="1680" from-port="0" to-layer="1681" to-port="0" />
		<edge from-layer="1681" from-port="1" to-layer="1682" to-port="1" />
		<edge from-layer="1682" from-port="2" to-layer="1683" to-port="0" />
		<edge from-layer="1683" from-port="1" to-layer="1686" to-port="0" />
		<edge from-layer="1684" from-port="0" to-layer="1685" to-port="0" />
		<edge from-layer="1685" from-port="1" to-layer="1686" to-port="1" />
		<edge from-layer="1686" from-port="2" to-layer="1689" to-port="0" />
		<edge from-layer="1687" from-port="0" to-layer="1688" to-port="0" />
		<edge from-layer="1688" from-port="1" to-layer="1689" to-port="1" />
		<edge from-layer="1689" from-port="2" to-layer="1690" to-port="0" />
		<edge from-layer="1690" from-port="1" to-layer="1691" to-port="1" />
		<edge from-layer="1691" from-port="2" to-layer="1694" to-port="0" />
		<edge from-layer="1691" from-port="2" to-layer="1706" to-port="0" />
		<edge from-layer="1692" from-port="0" to-layer="1693" to-port="0" />
		<edge from-layer="1693" from-port="1" to-layer="1694" to-port="1" />
		<edge from-layer="1694" from-port="2" to-layer="1697" to-port="0" />
		<edge from-layer="1695" from-port="0" to-layer="1696" to-port="0" />
		<edge from-layer="1696" from-port="1" to-layer="1697" to-port="1" />
		<edge from-layer="1697" from-port="2" to-layer="1698" to-port="0" />
		<edge from-layer="1698" from-port="1" to-layer="1701" to-port="0" />
		<edge from-layer="1699" from-port="0" to-layer="1700" to-port="0" />
		<edge from-layer="1700" from-port="1" to-layer="1701" to-port="1" />
		<edge from-layer="1701" from-port="2" to-layer="1704" to-port="0" />
		<edge from-layer="1702" from-port="0" to-layer="1703" to-port="0" />
		<edge from-layer="1703" from-port="1" to-layer="1704" to-port="1" />
		<edge from-layer="1704" from-port="2" to-layer="1705" to-port="0" />
		<edge from-layer="1705" from-port="1" to-layer="1706" to-port="1" />
		<edge from-layer="1706" from-port="2" to-layer="1709" to-port="0" />
		<edge from-layer="1706" from-port="2" to-layer="1721" to-port="0" />
		<edge from-layer="1707" from-port="0" to-layer="1708" to-port="0" />
		<edge from-layer="1708" from-port="1" to-layer="1709" to-port="1" />
		<edge from-layer="1709" from-port="2" to-layer="1712" to-port="0" />
		<edge from-layer="1710" from-port="0" to-layer="1711" to-port="0" />
		<edge from-layer="1711" from-port="1" to-layer="1712" to-port="1" />
		<edge from-layer="1712" from-port="2" to-layer="1713" to-port="0" />
		<edge from-layer="1713" from-port="1" to-layer="1716" to-port="0" />
		<edge from-layer="1714" from-port="0" to-layer="1715" to-port="0" />
		<edge from-layer="1715" from-port="1" to-layer="1716" to-port="1" />
		<edge from-layer="1716" from-port="2" to-layer="1719" to-port="0" />
		<edge from-layer="1717" from-port="0" to-layer="1718" to-port="0" />
		<edge from-layer="1718" from-port="1" to-layer="1719" to-port="1" />
		<edge from-layer="1719" from-port="2" to-layer="1720" to-port="0" />
		<edge from-layer="1720" from-port="1" to-layer="1721" to-port="1" />
		<edge from-layer="1721" from-port="2" to-layer="1729" to-port="0" />
		<edge from-layer="1722" from-port="0" to-layer="1723" to-port="0" />
		<edge from-layer="1723" from-port="1" to-layer="1724" to-port="1" />
		<edge from-layer="1724" from-port="2" to-layer="1727" to-port="0" />
		<edge from-layer="1725" from-port="0" to-layer="1726" to-port="0" />
		<edge from-layer="1726" from-port="1" to-layer="1727" to-port="1" />
		<edge from-layer="1727" from-port="2" to-layer="1728" to-port="0" />
		<edge from-layer="1728" from-port="1" to-layer="1729" to-port="1" />
		<edge from-layer="1729" from-port="2" to-layer="1732" to-port="0" />
		<edge from-layer="1730" from-port="0" to-layer="1731" to-port="0" />
		<edge from-layer="1731" from-port="1" to-layer="1732" to-port="1" />
		<edge from-layer="1732" from-port="2" to-layer="1735" to-port="0" />
		<edge from-layer="1733" from-port="0" to-layer="1734" to-port="0" />
		<edge from-layer="1734" from-port="1" to-layer="1735" to-port="1" />
		<edge from-layer="1735" from-port="2" to-layer="1736" to-port="0" />
		<edge from-layer="1736" from-port="1" to-layer="1739" to-port="0" />
		<edge from-layer="1737" from-port="0" to-layer="1738" to-port="0" />
		<edge from-layer="1738" from-port="1" to-layer="1739" to-port="1" />
		<edge from-layer="1739" from-port="2" to-layer="1742" to-port="0" />
		<edge from-layer="1740" from-port="0" to-layer="1741" to-port="0" />
		<edge from-layer="1741" from-port="1" to-layer="1742" to-port="1" />
		<edge from-layer="1742" from-port="2" to-layer="1743" to-port="0" />
		<edge from-layer="1743" from-port="1" to-layer="1746" to-port="0" />
		<edge from-layer="1743" from-port="1" to-layer="1818" to-port="2" />
		<edge from-layer="1743" from-port="1" to-layer="1798" to-port="0" />
		<edge from-layer="1744" from-port="0" to-layer="1745" to-port="0" />
		<edge from-layer="1745" from-port="1" to-layer="1746" to-port="1" />
		<edge from-layer="1746" from-port="2" to-layer="1749" to-port="0" />
		<edge from-layer="1747" from-port="0" to-layer="1748" to-port="0" />
		<edge from-layer="1748" from-port="1" to-layer="1749" to-port="1" />
		<edge from-layer="1749" from-port="2" to-layer="1750" to-port="0" />
		<edge from-layer="1750" from-port="1" to-layer="1753" to-port="0" />
		<edge from-layer="1750" from-port="1" to-layer="1765" to-port="0" />
		<edge from-layer="1751" from-port="0" to-layer="1752" to-port="0" />
		<edge from-layer="1752" from-port="1" to-layer="1753" to-port="1" />
		<edge from-layer="1753" from-port="2" to-layer="1756" to-port="0" />
		<edge from-layer="1754" from-port="0" to-layer="1755" to-port="0" />
		<edge from-layer="1755" from-port="1" to-layer="1756" to-port="1" />
		<edge from-layer="1756" from-port="2" to-layer="1757" to-port="0" />
		<edge from-layer="1757" from-port="1" to-layer="1760" to-port="0" />
		<edge from-layer="1758" from-port="0" to-layer="1759" to-port="0" />
		<edge from-layer="1759" from-port="1" to-layer="1760" to-port="1" />
		<edge from-layer="1760" from-port="2" to-layer="1763" to-port="0" />
		<edge from-layer="1761" from-port="0" to-layer="1762" to-port="0" />
		<edge from-layer="1762" from-port="1" to-layer="1763" to-port="1" />
		<edge from-layer="1763" from-port="2" to-layer="1764" to-port="0" />
		<edge from-layer="1764" from-port="1" to-layer="1765" to-port="1" />
		<edge from-layer="1765" from-port="2" to-layer="1768" to-port="0" />
		<edge from-layer="1765" from-port="2" to-layer="1780" to-port="0" />
		<edge from-layer="1766" from-port="0" to-layer="1767" to-port="0" />
		<edge from-layer="1767" from-port="1" to-layer="1768" to-port="1" />
		<edge from-layer="1768" from-port="2" to-layer="1771" to-port="0" />
		<edge from-layer="1769" from-port="0" to-layer="1770" to-port="0" />
		<edge from-layer="1770" from-port="1" to-layer="1771" to-port="1" />
		<edge from-layer="1771" from-port="2" to-layer="1772" to-port="0" />
		<edge from-layer="1772" from-port="1" to-layer="1775" to-port="0" />
		<edge from-layer="1773" from-port="0" to-layer="1774" to-port="0" />
		<edge from-layer="1774" from-port="1" to-layer="1775" to-port="1" />
		<edge from-layer="1775" from-port="2" to-layer="1778" to-port="0" />
		<edge from-layer="1776" from-port="0" to-layer="1777" to-port="0" />
		<edge from-layer="1777" from-port="1" to-layer="1778" to-port="1" />
		<edge from-layer="1778" from-port="2" to-layer="1779" to-port="0" />
		<edge from-layer="1779" from-port="1" to-layer="1780" to-port="1" />
		<edge from-layer="1780" from-port="2" to-layer="1783" to-port="0" />
		<edge from-layer="1780" from-port="2" to-layer="1795" to-port="0" />
		<edge from-layer="1781" from-port="0" to-layer="1782" to-port="0" />
		<edge from-layer="1782" from-port="1" to-layer="1783" to-port="1" />
		<edge from-layer="1783" from-port="2" to-layer="1786" to-port="0" />
		<edge from-layer="1784" from-port="0" to-layer="1785" to-port="0" />
		<edge from-layer="1785" from-port="1" to-layer="1786" to-port="1" />
		<edge from-layer="1786" from-port="2" to-layer="1787" to-port="0" />
		<edge from-layer="1787" from-port="1" to-layer="1790" to-port="0" />
		<edge from-layer="1788" from-port="0" to-layer="1789" to-port="0" />
		<edge from-layer="1789" from-port="1" to-layer="1790" to-port="1" />
		<edge from-layer="1790" from-port="2" to-layer="1793" to-port="0" />
		<edge from-layer="1791" from-port="0" to-layer="1792" to-port="0" />
		<edge from-layer="1792" from-port="1" to-layer="1793" to-port="1" />
		<edge from-layer="1793" from-port="2" to-layer="1794" to-port="0" />
		<edge from-layer="1794" from-port="1" to-layer="1795" to-port="1" />
		<edge from-layer="1795" from-port="2" to-layer="1803" to-port="0" />
		<edge from-layer="1796" from-port="0" to-layer="1797" to-port="0" />
		<edge from-layer="1797" from-port="1" to-layer="1798" to-port="1" />
		<edge from-layer="1798" from-port="2" to-layer="1801" to-port="0" />
		<edge from-layer="1799" from-port="0" to-layer="1800" to-port="0" />
		<edge from-layer="1800" from-port="1" to-layer="1801" to-port="1" />
		<edge from-layer="1801" from-port="2" to-layer="1802" to-port="0" />
		<edge from-layer="1802" from-port="1" to-layer="1803" to-port="1" />
		<edge from-layer="1803" from-port="2" to-layer="1806" to-port="0" />
		<edge from-layer="1804" from-port="0" to-layer="1805" to-port="0" />
		<edge from-layer="1805" from-port="1" to-layer="1806" to-port="1" />
		<edge from-layer="1806" from-port="2" to-layer="1809" to-port="0" />
		<edge from-layer="1807" from-port="0" to-layer="1808" to-port="0" />
		<edge from-layer="1808" from-port="1" to-layer="1809" to-port="1" />
		<edge from-layer="1809" from-port="2" to-layer="1810" to-port="0" />
		<edge from-layer="1810" from-port="1" to-layer="1813" to-port="0" />
		<edge from-layer="1811" from-port="0" to-layer="1812" to-port="0" />
		<edge from-layer="1812" from-port="1" to-layer="1813" to-port="1" />
		<edge from-layer="1813" from-port="2" to-layer="1816" to-port="0" />
		<edge from-layer="1814" from-port="0" to-layer="1815" to-port="0" />
		<edge from-layer="1815" from-port="1" to-layer="1816" to-port="1" />
		<edge from-layer="1816" from-port="2" to-layer="1817" to-port="0" />
		<edge from-layer="1817" from-port="1" to-layer="1818" to-port="3" />
		<edge from-layer="1818" from-port="4" to-layer="1821" to-port="0" />
		<edge from-layer="1819" from-port="0" to-layer="1820" to-port="0" />
		<edge from-layer="1820" from-port="1" to-layer="1821" to-port="1" />
		<edge from-layer="1821" from-port="2" to-layer="1824" to-port="0" />
		<edge from-layer="1822" from-port="0" to-layer="1823" to-port="0" />
		<edge from-layer="1823" from-port="1" to-layer="1824" to-port="1" />
		<edge from-layer="1824" from-port="2" to-layer="1825" to-port="0" />
		<edge from-layer="1825" from-port="1" to-layer="1828" to-port="0" />
		<edge from-layer="1825" from-port="1" to-layer="1848" to-port="0" />
		<edge from-layer="1826" from-port="0" to-layer="1827" to-port="0" />
		<edge from-layer="1827" from-port="1" to-layer="1828" to-port="1" />
		<edge from-layer="1828" from-port="2" to-layer="1831" to-port="0" />
		<edge from-layer="1829" from-port="0" to-layer="1830" to-port="0" />
		<edge from-layer="1830" from-port="1" to-layer="1831" to-port="1" />
		<edge from-layer="1831" from-port="2" to-layer="1832" to-port="0" />
		<edge from-layer="1832" from-port="1" to-layer="1835" to-port="0" />
		<edge from-layer="1833" from-port="0" to-layer="1834" to-port="0" />
		<edge from-layer="1834" from-port="1" to-layer="1835" to-port="1" />
		<edge from-layer="1835" from-port="2" to-layer="1838" to-port="0" />
		<edge from-layer="1836" from-port="0" to-layer="1837" to-port="0" />
		<edge from-layer="1837" from-port="1" to-layer="1838" to-port="1" />
		<edge from-layer="1838" from-port="2" to-layer="1839" to-port="0" />
		<edge from-layer="1839" from-port="1" to-layer="1842" to-port="0" />
		<edge from-layer="1840" from-port="0" to-layer="1841" to-port="0" />
		<edge from-layer="1841" from-port="1" to-layer="1842" to-port="1" />
		<edge from-layer="1842" from-port="2" to-layer="1845" to-port="0" />
		<edge from-layer="1843" from-port="0" to-layer="1844" to-port="0" />
		<edge from-layer="1844" from-port="1" to-layer="1845" to-port="1" />
		<edge from-layer="1845" from-port="2" to-layer="1866" to-port="0" />
		<edge from-layer="1846" from-port="0" to-layer="1847" to-port="0" />
		<edge from-layer="1847" from-port="1" to-layer="1848" to-port="1" />
		<edge from-layer="1848" from-port="2" to-layer="1851" to-port="0" />
		<edge from-layer="1849" from-port="0" to-layer="1850" to-port="0" />
		<edge from-layer="1850" from-port="1" to-layer="1851" to-port="1" />
		<edge from-layer="1851" from-port="2" to-layer="1852" to-port="0" />
		<edge from-layer="1852" from-port="1" to-layer="1855" to-port="0" />
		<edge from-layer="1853" from-port="0" to-layer="1854" to-port="0" />
		<edge from-layer="1854" from-port="1" to-layer="1855" to-port="1" />
		<edge from-layer="1855" from-port="2" to-layer="1858" to-port="0" />
		<edge from-layer="1856" from-port="0" to-layer="1857" to-port="0" />
		<edge from-layer="1857" from-port="1" to-layer="1858" to-port="1" />
		<edge from-layer="1858" from-port="2" to-layer="1859" to-port="0" />
		<edge from-layer="1859" from-port="1" to-layer="1862" to-port="0" />
		<edge from-layer="1860" from-port="0" to-layer="1861" to-port="0" />
		<edge from-layer="1861" from-port="1" to-layer="1862" to-port="1" />
		<edge from-layer="1862" from-port="2" to-layer="1865" to-port="0" />
		<edge from-layer="1863" from-port="0" to-layer="1864" to-port="0" />
		<edge from-layer="1864" from-port="1" to-layer="1865" to-port="1" />
		<edge from-layer="1865" from-port="2" to-layer="1866" to-port="1" />
		<edge from-layer="1866" from-port="2" to-layer="1868" to-port="0" />
		<edge from-layer="1867" from-port="0" to-layer="1868" to-port="1" />
		<edge from-layer="1868" from-port="2" to-layer="1955" to-port="0" />
		<edge from-layer="1869" from-port="0" to-layer="1870" to-port="0" />
		<edge from-layer="1870" from-port="1" to-layer="1871" to-port="1" />
		<edge from-layer="1871" from-port="2" to-layer="1874" to-port="0" />
		<edge from-layer="1872" from-port="0" to-layer="1873" to-port="0" />
		<edge from-layer="1873" from-port="1" to-layer="1874" to-port="1" />
		<edge from-layer="1874" from-port="2" to-layer="1875" to-port="0" />
		<edge from-layer="1875" from-port="1" to-layer="1878" to-port="0" />
		<edge from-layer="1876" from-port="0" to-layer="1877" to-port="0" />
		<edge from-layer="1877" from-port="1" to-layer="1878" to-port="1" />
		<edge from-layer="1878" from-port="2" to-layer="1881" to-port="0" />
		<edge from-layer="1879" from-port="0" to-layer="1880" to-port="0" />
		<edge from-layer="1880" from-port="1" to-layer="1881" to-port="1" />
		<edge from-layer="1881" from-port="2" to-layer="1882" to-port="0" />
		<edge from-layer="1882" from-port="1" to-layer="1885" to-port="0" />
		<edge from-layer="1883" from-port="0" to-layer="1884" to-port="0" />
		<edge from-layer="1884" from-port="1" to-layer="1885" to-port="1" />
		<edge from-layer="1885" from-port="2" to-layer="1888" to-port="0" />
		<edge from-layer="1886" from-port="0" to-layer="1887" to-port="0" />
		<edge from-layer="1887" from-port="1" to-layer="1888" to-port="1" />
		<edge from-layer="1888" from-port="2" to-layer="1909" to-port="0" />
		<edge from-layer="1889" from-port="0" to-layer="1890" to-port="0" />
		<edge from-layer="1890" from-port="1" to-layer="1891" to-port="1" />
		<edge from-layer="1891" from-port="2" to-layer="1894" to-port="0" />
		<edge from-layer="1892" from-port="0" to-layer="1893" to-port="0" />
		<edge from-layer="1893" from-port="1" to-layer="1894" to-port="1" />
		<edge from-layer="1894" from-port="2" to-layer="1895" to-port="0" />
		<edge from-layer="1895" from-port="1" to-layer="1898" to-port="0" />
		<edge from-layer="1896" from-port="0" to-layer="1897" to-port="0" />
		<edge from-layer="1897" from-port="1" to-layer="1898" to-port="1" />
		<edge from-layer="1898" from-port="2" to-layer="1901" to-port="0" />
		<edge from-layer="1899" from-port="0" to-layer="1900" to-port="0" />
		<edge from-layer="1900" from-port="1" to-layer="1901" to-port="1" />
		<edge from-layer="1901" from-port="2" to-layer="1902" to-port="0" />
		<edge from-layer="1902" from-port="1" to-layer="1905" to-port="0" />
		<edge from-layer="1903" from-port="0" to-layer="1904" to-port="0" />
		<edge from-layer="1904" from-port="1" to-layer="1905" to-port="1" />
		<edge from-layer="1905" from-port="2" to-layer="1908" to-port="0" />
		<edge from-layer="1906" from-port="0" to-layer="1907" to-port="0" />
		<edge from-layer="1907" from-port="1" to-layer="1908" to-port="1" />
		<edge from-layer="1908" from-port="2" to-layer="1909" to-port="1" />
		<edge from-layer="1909" from-port="2" to-layer="1911" to-port="0" />
		<edge from-layer="1910" from-port="0" to-layer="1911" to-port="1" />
		<edge from-layer="1911" from-port="2" to-layer="1955" to-port="1" />
		<edge from-layer="1912" from-port="0" to-layer="1913" to-port="0" />
		<edge from-layer="1913" from-port="1" to-layer="1914" to-port="1" />
		<edge from-layer="1914" from-port="2" to-layer="1917" to-port="0" />
		<edge from-layer="1915" from-port="0" to-layer="1916" to-port="0" />
		<edge from-layer="1916" from-port="1" to-layer="1917" to-port="1" />
		<edge from-layer="1917" from-port="2" to-layer="1918" to-port="0" />
		<edge from-layer="1918" from-port="1" to-layer="1921" to-port="0" />
		<edge from-layer="1919" from-port="0" to-layer="1920" to-port="0" />
		<edge from-layer="1920" from-port="1" to-layer="1921" to-port="1" />
		<edge from-layer="1921" from-port="2" to-layer="1924" to-port="0" />
		<edge from-layer="1922" from-port="0" to-layer="1923" to-port="0" />
		<edge from-layer="1923" from-port="1" to-layer="1924" to-port="1" />
		<edge from-layer="1924" from-port="2" to-layer="1925" to-port="0" />
		<edge from-layer="1925" from-port="1" to-layer="1928" to-port="0" />
		<edge from-layer="1926" from-port="0" to-layer="1927" to-port="0" />
		<edge from-layer="1927" from-port="1" to-layer="1928" to-port="1" />
		<edge from-layer="1928" from-port="2" to-layer="1931" to-port="0" />
		<edge from-layer="1929" from-port="0" to-layer="1930" to-port="0" />
		<edge from-layer="1930" from-port="1" to-layer="1931" to-port="1" />
		<edge from-layer="1931" from-port="2" to-layer="1952" to-port="0" />
		<edge from-layer="1932" from-port="0" to-layer="1933" to-port="0" />
		<edge from-layer="1933" from-port="1" to-layer="1934" to-port="1" />
		<edge from-layer="1934" from-port="2" to-layer="1937" to-port="0" />
		<edge from-layer="1935" from-port="0" to-layer="1936" to-port="0" />
		<edge from-layer="1936" from-port="1" to-layer="1937" to-port="1" />
		<edge from-layer="1937" from-port="2" to-layer="1938" to-port="0" />
		<edge from-layer="1938" from-port="1" to-layer="1941" to-port="0" />
		<edge from-layer="1939" from-port="0" to-layer="1940" to-port="0" />
		<edge from-layer="1940" from-port="1" to-layer="1941" to-port="1" />
		<edge from-layer="1941" from-port="2" to-layer="1944" to-port="0" />
		<edge from-layer="1942" from-port="0" to-layer="1943" to-port="0" />
		<edge from-layer="1943" from-port="1" to-layer="1944" to-port="1" />
		<edge from-layer="1944" from-port="2" to-layer="1945" to-port="0" />
		<edge from-layer="1945" from-port="1" to-layer="1948" to-port="0" />
		<edge from-layer="1946" from-port="0" to-layer="1947" to-port="0" />
		<edge from-layer="1947" from-port="1" to-layer="1948" to-port="1" />
		<edge from-layer="1948" from-port="2" to-layer="1951" to-port="0" />
		<edge from-layer="1949" from-port="0" to-layer="1950" to-port="0" />
		<edge from-layer="1950" from-port="1" to-layer="1951" to-port="1" />
		<edge from-layer="1951" from-port="2" to-layer="1952" to-port="1" />
		<edge from-layer="1952" from-port="2" to-layer="1954" to-port="0" />
		<edge from-layer="1953" from-port="0" to-layer="1954" to-port="1" />
		<edge from-layer="1954" from-port="2" to-layer="1955" to-port="2" />
		<edge from-layer="1955" from-port="3" to-layer="1958" to-port="0" />
		<edge from-layer="1956" from-port="0" to-layer="1958" to-port="1" />
		<edge from-layer="1957" from-port="0" to-layer="1958" to-port="2" />
		<edge from-layer="1958" from-port="3" to-layer="1960" to-port="0" />
		<edge from-layer="1958" from-port="4" to-layer="1996" to-port="0" />
		<edge from-layer="1959" from-port="0" to-layer="1960" to-port="1" />
		<edge from-layer="1960" from-port="2" to-layer="1962" to-port="0" />
		<edge from-layer="1961" from-port="0" to-layer="1962" to-port="1" />
		<edge from-layer="1962" from-port="2" to-layer="1963" to-port="0" />
		<edge from-layer="1962" from-port="2" to-layer="1972" to-port="0" />
		<edge from-layer="1963" from-port="1" to-layer="1967" to-port="0" />
		<edge from-layer="1963" from-port="1" to-layer="1974" to-port="1" />
		<edge from-layer="1964" from-port="0" to-layer="1967" to-port="1" />
		<edge from-layer="1965" from-port="0" to-layer="1967" to-port="2" />
		<edge from-layer="1966" from-port="0" to-layer="1967" to-port="3" />
		<edge from-layer="1967" from-port="4" to-layer="1969" to-port="0" />
		<edge from-layer="1968" from-port="0" to-layer="1969" to-port="1" />
		<edge from-layer="1969" from-port="2" to-layer="1971" to-port="0" />
		<edge from-layer="1970" from-port="0" to-layer="1971" to-port="1" />
		<edge from-layer="1971" from-port="2" to-layer="1972" to-port="1" />
		<edge from-layer="1972" from-port="2" to-layer="1973" to-port="0" />
		<edge from-layer="1973" from-port="1" to-layer="1974" to-port="0" />
		<edge from-layer="1974" from-port="2" to-layer="1976" to-port="0" />
		<edge from-layer="1975" from-port="0" to-layer="1976" to-port="1" />
		<edge from-layer="1976" from-port="2" to-layer="1977" to-port="0" />
		<edge from-layer="1977" from-port="2" to-layer="1979" to-port="0" />
		<edge from-layer="1978" from-port="0" to-layer="1979" to-port="1" />
		<edge from-layer="1979" from-port="2" to-layer="1982" to-port="0" />
		<edge from-layer="1980" from-port="0" to-layer="1982" to-port="1" />
		<edge from-layer="1981" from-port="0" to-layer="1982" to-port="2" />
		<edge from-layer="1982" from-port="3" to-layer="1983" to-port="1" />
		<edge from-layer="1982" from-port="4" to-layer="1986" to-port="1" />
		<edge from-layer="1983" from-port="2" to-layer="1987" to-port="0" />
		<edge from-layer="1983" from-port="2" to-layer="1991" to-port="1" />
		<edge from-layer="1984" from-port="0" to-layer="1985" to-port="0" />
		<edge from-layer="1985" from-port="1" to-layer="1986" to-port="0" />
		<edge from-layer="1986" from-port="2" to-layer="1987" to-port="1" />
		<edge from-layer="1986" from-port="2" to-layer="1991" to-port="0" />
		<edge from-layer="1987" from-port="2" to-layer="1990" to-port="0" />
		<edge from-layer="1988" from-port="0" to-layer="1989" to-port="0" />
		<edge from-layer="1989" from-port="1" to-layer="1990" to-port="1" />
		<edge from-layer="1990" from-port="2" to-layer="1992" to-port="0" />
		<edge from-layer="1991" from-port="2" to-layer="1992" to-port="1" />
		<edge from-layer="1992" from-port="2" to-layer="1995" to-port="0" />
		<edge from-layer="1993" from-port="0" to-layer="1994" to-port="0" />
		<edge from-layer="1994" from-port="1" to-layer="1995" to-port="1" />
		<edge from-layer="1995" from-port="2" to-layer="1997" to-port="0" />
		<edge from-layer="1996" from-port="1" to-layer="1997" to-port="1" />
		<edge from-layer="1997" from-port="2" to-layer="1998" to-port="0" />
	</edges>
	<rt_info>
		<MO_version value="2022.3.1-9227-cf2c7da5689-releases/2022/3" />
		<Runtime_version value="2022.3.1-9227-cf2c7da5689-releases/2022/3" />
		<conversion_parameters>
			<data_type value="FP16" />
			<framework value="onnx" />
			<input_model value="DIR/yolov9-s.onnx" />
			<input_shape value="[1,3,640,640]" />
			<model_name value="yolov9s" />
		</conversion_parameters>
		<framework>
			<names value="{0: 'person', 1: 'bicycle', 2: 'car', 3: 'motorcycle', 4: 'airplane', 5: 'bus', 6: 'train', 7: 'truck', 8: 'boat', 9: 'traffic light', 10: 'fire hydrant', 11: 'stop sign', 12: 'parking meter', 13: 'bench', 14: 'bird', 15: 'cat', 16: 'dog', 17: 'horse', 18: 'sheep', 19: 'cow', 20: 'elephant', 21: 'bear', 22: 'zebra', 23: 'giraffe', 24: 'backpack', 25: 'umbrella', 26: 'handbag', 27: 'tie', 28: 'suitcase', 29: 'frisbee', 30: 'skis', 31: 'snowboard', 32: 'sports ball', 33: 'kite', 34: 'baseball bat', 35: 'baseball glove', 36: 'skateboard', 37: 'surfboard', 38: 'tennis racket', 39: 'bottle', 40: 'wine glass', 41: 'cup', 42: 'fork', 43: 'knife', 44: 'spoon', 45: 'bowl', 46: 'banana', 47: 'apple', 48: 'sandwich', 49: 'orange', 50: 'broccoli', 51: 'carrot', 52: 'hot dog', 53: 'pizza', 54: 'donut', 55: 'cake', 56: 'chair', 57: 'couch', 58: 'potted plant', 59: 'bed', 60: 'dining table', 61: 'toilet', 62: 'tv', 63: 'laptop', 64: 'mouse', 65: 'remote', 66: 'keyboard', 67: 'cell phone', 68: 'microwave', 69: 'oven', 70: 'toaster', 71: 'sink', 72: 'refrigerator', 73: 'book', 74: 'clock', 75: 'vase', 76: 'scissors', 77: 'teddy bear', 78: 'hair drier', 79: 'toothbrush'}" />
			<stride value="32" />
		</framework>
		<legacy_frontend value="False" />
	</rt_info>
</net>
